learn/checkpoints/model_0.45004_50.pth (torch, 251507 bytes, 10 tensors)

conv1.0.weight f4 [6, 3, 5, 5]
000000 5f 1a f1 3d 7e ee 04 3e 07 41 6a 3c 0c 07 27 3e
       0.11772608 0.12981603 0.01429773 0.16311282
000010 d3 df 5d 3d 01 bf 99 3d 22 7e 3f 3c 29 b8 16 3e
       0.054168534 0.07507134 0.011687787 0.14718689
000020 4f 82 43 3e 35 a0 80 3c 1f 75 08 3e cc 9d 97 3d
       0.19092678 0.015701393 0.13325928 0.07403144
000030 64 e3 17 3e f7 ae ae 3d d1 76 0d 3e 3a ad 7b bc
       0.14832836 0.08529466 0.13814856 -0.015361125
000040 8c 6e d4 3d 35 97 15 3d 61 e0 fd bc 03 62 9a 3d
       0.10372648 0.036521155 -0.030990781 0.075382255
000050 7c ce 9c bd 2e 40 07 bd 6d ca 8f bd 81 01 70 3d
       -0.07656571 -0.03302019 -0.070210315 0.058595184
000060 c9 c3 9b bd cb 02 29 bd 59 fa af ba d0 2b e9 bc
       -0.076057024 -0.04126243 -0.001342605 -0.028463274
000070 43 a1 5f 3d 83 5e 8f bd ec 6f d2 3d 5c 92 91 bd
       0.05459715 -0.070004486 0.10275254 -0.07107994
000080 5e ec 03 3e b2 d0 67 3d 29 7f fa bb ac 39 d9 3c
       0.12883136 0.05659551 -0.007644553 0.026516758
000090 b3 9c 81 3b 7b d4 b8 3d 2c 1d c6 3b 6b 70 44 bd
       0.0039554476 0.090249024 0.006045958 -0.047958773
0000a0 76 1f 51 bd eb 37 b3 bd cc 0a 29 bb d7 3f 34 3d
       -0.051055394 -0.087509 -0.002579379 0.044006195
0000b0 b0 0e 39 3c bb 80 10 be 3e a9 aa bb 85 f2 55 bd
       0.011295006 -0.14111607 -0.0052081635 -0.052233238
0000c0 72 af c7 bc 2f 04 13 be 8f b6 ca bd c4 d6 e8 bb
       -0.024375651 -0.14357065 -0.098981015 -0.00710568
0000d0 a5 4e 38 bd be 53 03 3e d2 3c 49 3d 54 d0 51 3d
       -0.044996876 0.12824914 0.04913027 0.051224068
0000e0 c6 9b 8b 3d f3 f0 1a 3d 21 81 ef 3d 68 4f 9f bd
       0.06816821 0.037827443 0.11694551 -0.077788174
0000f0 18 a1 09 bd 22 b1 b7 bd 4e 7d 01 3d d4 53 6b bd
       -0.033600897 -0.08969332 0.03161364 -0.05745299
000100 b3 54 7a bb 7f 8a e2 bd f0 ac 16 3d 5a af ff bd
       -0.0038197457 -0.11061572 0.03678602 -0.124846175
000110 de ca 12 be 34 2a 20 be bd ae 88 bb 45 94 35 bd
       -0.143352 -0.15641099 -0.004171221 -0.044330854
000120 9f 03 e2 3c 4b f7 4b be 1b 93 69 be fe 9b 81 3d
       0.027589617 -0.19918554 -0.22810023 0.06328581
000130 87 1e 7b 3d d5 50 2d 3e 83 ea 0f 3e 5a 35 41 3e
       0.06130841 0.16925366 0.14054303 0.18868008
000140 2f c1 83 3d 2a 72 db 3b b0 17 de 3d 33 7d 06 bd
       0.06433331 0.006696959 0.10844362 -0.032834243
000150 64 d9 ab 3d 2f 75 ae 3d 47 c6 fe 3d 1d b6 a8 bd
       0.08391073 0.08518445 0.12440162 -0.0823786
000160 e2 0a b6 bd 81 14 11 3c 2f 3b e5 3d d7 a6 14 3b
       -0.088887945 0.008854986 0.11192929 0.0022682452
000170 2c e4 4f 3d 48 36 d7 3c 02 63 04 be 03 8e 35 bc
       0.05075471 0.026271 -0.12928393 -0.0110812215
000180 19 98 e2 3d 5f 9e 95 bd 79 ed ce bd f0 76 28 be
       0.110641666 -0.073055975 -0.10103888 -0.16451621
000190 5d f6 5a b9 d0 ad a6 3d 36 34 d2 3c 00 db 81 bd
       -0.00020881878 0.08138621 0.025659662 -0.06340599
0001a0 9e 57 79 3c 22 3b 11 bd ba 5a b7 bd 9a cc b0 bd
       0.0152186435 -0.035456784 -0.089528516 -0.08632775
0001b0 5b 9e 1c be a4 a1 01 be 2a 4d 1c 3e 97 ba 06 3c
       -0.15294783 -0.12659317 0.15263811 0.008223197
0001c0 52 1f ba bc 19 15 4d be d6 ee 28 be 6e 96 a3 bc
       -0.022720013 -0.2002758 -0.16497359 -0.019969191
0001d0 c1 f8 94 bc 20 b1 3c be ac 93 28 be 45 f8 35 be
       -0.018185021 -0.18426943 -0.16462582 -0.17770489
0001e0 56 17 e3 bb a9 6b c8 bd 68 0e d0 bd cd 2d 4a be
       -0.006930272 -0.097861595 -0.10158998 -0.19744034
0001f0 38 84 43 be 4e 69 b2 bc 9b cc d2 bb 02 db 89 bd
       -0.19093406 -0.021778729 -0.0064330823 -0.067312256
000200 33 ac db 3d 00 14 62 bc 6a b3 1e 3e 39 3e 81 3d
       0.10726204 -0.013798714 0.15498129 0.06310696
000210 a2 50 c2 bd 10 ee 7f 3d e7 9b 3b bd fe fb f5 3c
       -0.09488036 0.062482893 -0.045802977 0.030027386
000220 e3 db 7c bd 6e 49 eb bd 4b 8c 13 3c dc 47 2d bd
       -0.061733138 -0.11488615 0.009005616 -0.04230486
000230 a5 21 f4 3d 6c 60 82 bd a3 89 a7 3d 5f bc e1 bd
       0.1192048 -0.06366047 0.08180549 -0.11022257
000240 9d e4 11 bd ce 93 b4 3d 66 fb ae 3d a6 d9 b8 3d
       -0.035618413 0.08817254 0.08544044 0.09025888
000250 a4 b3 b1 3d 25 dc c8 bd de f1 9b bc db 15 fc bd
       0.08676842 -0.09807614 -0.01903623 -0.12308856
000260 57 26 9b bd d4 4e f3 bd 3b f4 cf 3d 76 f8 fe bd
       -0.07575672 -0.1188027 0.10154005 -0.12449734
000270 ae 34 3f ba 31 84 0d bc 51 7b b4 3c 92 5e 36 bd
       -0.00072939217 -0.008637474 0.022031458 -0.044523783
000280 4e d6 f3 3d ec 58 fd 3c 56 a1 1d 3d 6a fa 55 bd
       0.1190611 0.03092619 0.03848394 -0.052240767
000290 87 1f ee 3d 28 b8 e0 3c a5 49 3b bb ed 69 30 3e
       0.11627107 0.027431563 -0.002857783 0.17227907
0002a0 13 40 f3 3d b0 95 15 3d 74 90 14 bd 6c a2 ce 3c
       0.118774556 0.036519706 -0.036270574 0.025223933
0002b0 4b b2 ec 3d 7f 63 29 3d 77 f5 83 3c 2f 6e d0 bd
       0.11557444 0.041354652 0.016108258 -0.10177266
0002c0 d5 37 19 be 26 c6 9a bb e2 ab 79 3d d2 50 0c be
       -0.14962704 -0.004723328 0.060954936 -0.13702706
0002d0 6d 5a bf bc 3e ec 37 3c 64 cd e5 bb ab e5 47 bd
       -0.023358548 0.011225758 -0.00701301 -0.048803013
0002e0 fe 29 61 3d 4e b6 8a 3d 83 b6 87 3d cf f4 d8 3c
       0.054971687 0.06773053 0.06626608 0.026483921
0002f0 ac 4e ef 3c 69 41 7d 3d b7 45 9c 3c 6f b8 0d 3d
       0.029212318 0.061829958 0.019076211 0.034599718
000300 6c fb 2f 3e 6b 47 52 3e 89 9a 98 3d 8c d0 d7 ba
       0.17185754 0.20535056 0.0745135 -0.001646535
000310 fd 3b 66 3d 66 d4 9b 3d ec cb f3 3d d5 53 dc 3d
       0.056209553 0.07608871 0.119041294 0.10758177
000320 f4 7d 96 be 59 83 51 be 6e 6a 21 bd 91 49 b6 bd
       -0.2939297 -0.20460261 -0.03940814 -0.089007504
000330 3e 82 2b be 7b a4 3d be 56 39 21 be 9e f1 26 be
       -0.16748902 -0.18519776 -0.15744528 -0.16303107
000340 fa 4a be bd 34 ce 2f bd f1 5b 34 3d ab 2b 84 3d
       -0.092916444 -0.04292126 0.044032995 0.064536415
000350 c4 48 79 bd 00 34 f7 bc a0 0a 8a bc bd bf e0 3d
       -0.06086041 -0.030176163 -0.01685077 0.10974071
000360 ad d8 88 3d c7 8f 62 3d 50 76 02 3e ee 92 2c bc
       0.066819526 0.055312898 0.12740445 -0.010533078
000370 29 fc ea bd 35 2c c4 3d 8d 7c d1 bb d9 db 95 3c
       -0.11473877 0.09578744 -0.0063930214 0.018293308
000380 f0 b1 eb bd 46 02 4e 3e f5 59 3d 3e d0 ba 08 3e
       -0.11508548 0.20118055 0.18491347 0.13352513
000390 64 c9 c0 3c 45 87 74 ba 3f 1d 31 3d bd 86 44 3e
       0.02353353 -0.0009328018 0.043240782 0.19192024
0003a0 04 b2 1a 3e f4 1d 52 3e 32 4d 39 3e 89 91 c8 3d
       0.1510697 0.20519239 0.18095854 0.09793384
0003b0 ed de 0b 3d 27 e2 83 bd 5a 6c 7e bd 32 32 63 bd
       0.034148145 -0.064396195 -0.06211505 -0.05546779
0003c0 4d ed ea 3c 5a 03 df bd e3 79 b3 bd 12 87 ed bd
       0.028677607 -0.10889311 -0.087634824 -0.11598028
0003d0 0e 43 4c bd 78 8c fc bd 8a a3 1c be d1 66 55 bd
       -0.049868636 -0.1233148 -0.1529676 -0.052100006
0003e0 66 0c db bd 6c 96 e3 3c 46 dd 93 bc 85 28 ab bd
       -0.10695724 0.027781688 -0.018049847 -0.08357338
0003f0 1e 16 60 3b d8 05 6e 3c 5f 61 96 3d 9f 13 95 bd
       0.003419287 0.01452776 0.07342791 -0.07279133

conv1.0.bias f4 [6]
000000 d2 04 06 be 86 87 d0 be dc 66 6f be 86 5d fb 3d
       -0.13087776 -0.40728396 -0.23379081 0.122736976
000010 68 4c 6e 3d 40 5e 1b 3d
       0.058178335 0.03793168

conv2.0.weight f4 [16, 6, 5, 5]
000000 ce b1 bd 3d 5b 2f 0d 3e 20 68 35 3d 9b 4a ec bb
       0.09262429 0.13787596 0.044288754 -0.007211042
000010 72 96 08 3e 6c a9 01 3d 65 8d bf 3c 0a c5 2a bd
       0.1333864 0.031655714 0.023382852 -0.041691817
000020 ff 8a 9c 3d a3 96 8b 3d 5e 5a d0 bd 17 3d 56 bd
       0.07643699 0.06815841 -0.10173486 -0.052304354
000030 d6 04 d3 3d c4 08 be 3d 73 94 f9 3d aa 0d 8b bc
       0.10303657 0.09279016 0.121865176 -0.016974289
000040 40 fa 0b 3d cf 33 fa bc d3 06 d5 bd 72 cd 67 bb
       0.034174204 -0.030542282 -0.10401692 -0.0035370258
000050 99 00 29 bd f5 43 fd bc 1f 43 56 3b 1f b6 6e 3c
       -0.041260336 -0.030916194 0.0032693816 0.014569788
000060 9d 97 a0 3d ee ed 0b bd 24 05 5d bd 93 26 b4 bc
       0.07841418 -0.034162454 -0.05395998 -0.02199105
000070 ec 32 ca bd fa 2e 1a be 01 56 10 3d fb 2a 27 bd
       -0.09872994 -0.15056983 0.03523827 -0.040812474
000080 cd 9a 35 3d e7 0c 85 3d 80 21 94 bc 4c 12 ab 3c
       0.044337083 0.064966016 -0.01808238 0.020882748
000090 7b b3 c2 3b ad 5f a5 3c eb cc 34 3d 06 b2 7a 3c
       0.005941806 0.020187223 0.044140738 0.015301233
0000a0 02 7b 25 3d e7 67 a1 3d 71 a6 12 3c 38 2e c4 3a
       0.040400513 0.07881146 0.008950816 0.0014967388
0000b0 7f ce 10 bd df ee 89 3c 29 ef df 3c c1 b8 81 3d
       -0.03535318 0.016837535 0.02733572 0.06334067
0000c0 7e d4 fe 3c e4 3e 7f bd 23 90 64 be ff c4 4b be
       0.031107184 -0.062315837 -0.22320609 -0.19899367
0000d0 f3 fc 00 be f4 d9 c4 bd 21 26 26 bd c4 cf f8 bd
       -0.12596492 -0.09611884 -0.040563706 -0.12149003
0000e0 36 75 f9 3b 84 c5 88 bd 41 82 a1 bd 9e 7e 7f bd
       0.0076128496 -0.06678298 -0.07886172 -0.06237661
0000f0 97 30 01 3d 23 cf f0 bd 2b e1 5c bc c2 d6 f8 bd
       0.03154048 -0.11758258 -0.013481419 -0.12150337
000100 64 e5 8b bd fa cc 1f 3d 79 f6 4d bd 69 4e d7 bb
       -0.06830862 0.03901384 -0.050283883 -0.0065706265
000110 6a c1 1f 3c 28 c7 a6 bc e3 46 9f 3d 1f 91 16 3d
       0.009750703 -0.020358637 0.077771924 0.036759492
000120 85 f9 46 3d d0 55 ac 3d f0 35 65 3e 26 cf 63 bd
       0.048577804 0.08414805 0.22383857 -0.055617474
000130 e3 7b 55 bd f0 e3 17 3d 9e 0d 8b 3a c8 79 cc bc
       -0.0521201 0.037082613 0.0010608917 -0.024960414
000140 33 3e 98 bd e0 8f 58 bd ad 1f f1 bd e5 01 ba 3b
       -0.074337386 -0.052871585 -0.1177362 0.0056764954
000150 6b 76 9a bd 96 2d e9 3c 6e 6d 66 bd b1 7f f0 bc
       -0.07542118 0.02846412 -0.056256704 -0.029357763
000160 32 6f 20 3d f8 68 2b 3b c3 0e 18 3e 63 15 b3 3d
       0.039168544 0.0026155096 0.14849381 0.087443136
000170 4c e1 7a 3d d6 6c 3e bd 1e e3 a8 bc cd 4a b6 3e
       0.061250016 -0.046490513 -0.02061611 0.35603943
000180 12 3f 51 3e 0d e4 55 3e 34 ef f9 3d 48 58 a0 3d
       0.20434216 0.20887776 0.122038275 0.07829338
000190 e6 b4 d1 3d 09 54 ec 3d 2e 32 f6 3d 27 4c 03 3e
       0.10239582 0.11539466 0.1202129 0.12822019
0001a0 9c 5a b6 3d 9e 11 13 3e 89 76 e0 3d 62 73 be 3c
       0.08904001 0.14362189 0.10960109 0.023248378
0001b0 b6 83 87 3a 81 39 6a 3c 2a cf 9c bd 65 6f 02 bd
       0.0010338936 0.014295937 -0.07656701 -0.031844515
0001c0 fc 02 8f bd 9a 90 c2 bd 69 2a 2d bd 6d be 27 be
       -0.06982991 -0.09500237 -0.042276774 -0.16381235
0001d0 47 dc 11 be 9c b1 33 bd 6d 1c 57 bb f3 e8 3c bd
       -0.14244185 -0.043870553 -0.003282334 -0.046120595
0001e0 a4 c0 b8 bd a1 ab 16 bd 23 b9 bf bd e5 d3 75 bd
       -0.09021118 -0.03678477 -0.09361484 -0.06001653
0001f0 9b 7c cc 3d b9 84 14 be 72 bc b2 3d 21 59 94 3e
       0.09984704 -0.14503755 0.08727349 0.2897425
000200 66 7f 80 3e 92 b1 8e 3e 5b 10 ab bc eb c6 1d 3e
       0.25097197 0.2786985 -0.020881822 0.15407912
000210 3d f9 34 3e 1d f4 03 3e ae fd 1c 3e f2 95 1f 3e
       0.17673202 0.1288609 0.15331146 0.15584543
000220 56 b0 75 3d c8 cf ff 3c 52 8e ce bd 5c 51 88 bd
       0.05998262 0.031227008 -0.10085739 -0.06656143
000230 06 dd 03 bc ba 58 5f bd 1a e3 c1 bc d9 7c e1 bd
       -0.008048302 -0.054527976 -0.02366786 -0.11010141
000240 b4 e2 8e bd dc 56 a0 be ae 0d b3 be 11 2e b7 be
       -0.06976834 -0.31316268 -0.34971374 -0.35777333
000250 93 9a ad be 25 18 94 be fd 49 05 3e e0 1b e8 3d
       -0.33906993 -0.2892467 0.13016506 0.11333442
000260 1a fd fc 3d 1e 4f dd 3d e6 66 fe 3d c1 1b d2 3d
       0.12352963 0.10806106 0.1242197 0.102592
000270 79 a3 73 3d 41 84 0c 3e 0b 3e af 3d c8 dc b9 3d
       0.05948207 0.13722326 0.08556756 0.09075314
000280 fd 93 99 3d 11 84 a2 3d cb 49 2f 3e 82 a0 87 3e
       0.0749893 0.07935346 0.17117994 0.26489645
000290 11 ae ab 3d 55 71 07 be 94 b0 14 be 62 f9 a4 bd
       0.0838281 -0.13226826 -0.14520484 -0.080553785
0002a0 40 7b 7b bd a8 84 36 be 3a 54 b2 bd 83 bb c1 bd
       -0.061396837 -0.17824042 -0.08707471 -0.09459593
0002b0 9b 8d 6d be c6 dd 18 be e8 eb 5e be c4 8d 26 bd
       -0.2319855 -0.1492835 -0.21769679 -0.040662542
0002c0 a6 39 69 3d 23 c9 c6 3d 17 34 95 bc 28 5c 1f bd
       0.056939743 0.097063325 -0.018213315 -0.038906246
0002d0 e2 9f 05 be 30 3d 20 be 0a c8 46 be 43 df d2 bd
       -0.13049272 -0.15648341 -0.19412246 -0.1029649
0002e0 42 89 5d 3c 5f 1f 96 bc 67 3f 63 3d cb 34 04 3d
       0.013521494 -0.018325506 0.055480387 0.03227691
0002f0 84 96 3d bd ba 3d 0e 3d 89 9d 56 3e 9a 1a 22 3e
       -0.04628612 0.034726836 0.20958532 0.1583046
000300 ec a6 3e 3e 21 44 1c 3e ea d2 26 3e 8b 15 e5 3d
       0.18618363 0.15260364 0.16291395 0.111857496
000310 63 8f 4e 3e 13 1a 10 3e c7 47 1c 3e cf 7f 16 3e
       0.20171885 0.14072447 0.15261756 0.14697193
000320 01 e1 f8 bc 28 10 a9 bd 34 02 9e bd bf a0 51 3c
       -0.030380728 -0.08255035 -0.07715264 0.0127946725
000330 79 82 ae bd c8 7b 0f 3e dc 94 5a 3e 55 84 f1 3e
       -0.085209794 0.14012063 0.21345848 0.47171274
000340 12 ec eb 3e 43 97 97 3e 2d d8 34 3d fc 45 eb 3c
       0.46078545 0.2960759 0.044151474 0.028719895
000350 fb 9e c5 3d 3b 36 bf bc 4b 95 21 3c 73 43 03 3e
       0.09649464 -0.023341289 0.009862254 0.12818699
000360 5c a6 91 3d 39 0a 38 bd 8e 1d 2f be 25 1b e0 3b
       0.07111809 -0.044931624 -0.17101118 0.0068391734
000370 7d a6 1d 3e 87 6f 3a 3e 3c 4e 04 3e bb 52 32 3e
       0.15395541 0.18206607 0.12920469 0.17414372
000380 e8 64 5e 3e 35 34 ca bd af 6c 25 be fd 83 9e bd
       0.2171818 -0.09873239 -0.16154741 -0.077400185
000390 7e 61 02 be 56 4f 6e bd 44 ca 1c be f1 3f 2d be
       -0.12732503 -0.05818113 -0.15311533 -0.16918923
0003a0 38 57 88 be f6 a4 67 be 01 ea 1e be 14 b6 c2 3d
       -0.26629043 -0.22621521 -0.15518953 0.09507385
0003b0 7e ef 2b 3d 94 85 d1 3d 38 f5 d9 3c 9c 65 eb 3c
       0.041976444 0.10230556 0.026606187 0.028734975
0003c0 3c 26 ba 3c 97 73 bb 3d d1 b9 39 3c fa ea 08 3e
       0.02272331 0.091529064 0.011335806 0.13370886
0003d0 81 69 99 3d 72 48 0e be 21 3c f1 bd 3f 1c 13 be
       0.074908264 -0.13894823 -0.11779047 -0.14366244
0003e0 62 d8 40 bd 8d 47 df bd 30 be 96 3d 0c 8a a1 3d
       -0.04708136 -0.10902319 0.07360494 0.078876585
0003f0 80 c8 1f bc 0f 5a 50 3d f4 55 b1 3a 38 6f 96 3d
       -0.009752393 0.050867137 0.0013529644 0.07345432

conv2.0.bias f4 [16]
000000 51 31 49 3c e7 9d 66 be 8b 8e 3c be a4 cf 17 bd
       0.012279824 -0.22521172 -0.18413751 -0.037063256
000010 3e 25 d0 3d 84 b2 6f be d2 73 1c 3e 2f ad 83 bd
       0.101633534 -0.23407942 0.15278557 -0.064295165
000020 96 8d c3 bd c3 de 2c 3e b5 67 e2 3d e1 4d ac be
       -0.0954849 0.16881852 0.11054937 -0.33653167
000030 e2 6a 17 bd c4 cd ba bd d9 c4 49 bd ce e4 73 3e
       -0.036967166 -0.09121278 -0.049259994 0.23817751

conv3.0.weight f4 [120, 16, 5, 5]
000000 b9 d3 bb 3a a7 79 8a bb 7e 75 75 3c 1e ac 35 bc
       0.0014330066 -0.004225928 0.014981626 -0.011088399
000010 90 7e dc bb 5b 5c 90 3c 04 0a 20 bc ae cb c4 3b
       -0.0067289546 0.017622164 -0.009768013 0.006005726
000020 68 fb 85 bd 29 c3 78 bd e8 e0 80 3d 1e 88 28 3d
       -0.065420926 -0.060732994 0.062928975 0.041145436
000030 6d fa 4b 3d bf e0 d7 3d d3 72 8b 3d e3 ba cd 3d
       0.04979937 0.10540914 0.0680901 0.100454114
000040 f5 b1 0a 3e 13 27 39 3e f7 59 0d 3e 54 53 16 3e
       0.13544448 0.18081312 0.1380385 0.14680225
000050 a7 6e 44 3d 77 46 7c 3d 4a e4 00 3e f8 85 f7 3d
       0.04795709 0.061590638 0.12587085 0.120860994
000060 8a 1c 17 3e 86 9d be 3c 16 de 08 3d 11 8b 93 bb
       0.1475698 0.023268472 0.033414923 -0.004502662
000070 73 59 fb bc c9 22 89 bc 25 cc 7c 3c a4 d9 5f 3d
       -0.030682301 -0.01674022 0.015429531 0.054650918
000080 fc 14 1b 3d d9 a8 e1 3c 16 89 10 bd 82 1f c8 3d
       0.03786181 0.027546333 -0.035286985 0.09771635
000090 72 46 9f 3d c1 d9 ef 3d 26 fc 0c 3d 5a c5 97 3d
       0.07777108 0.11711455 0.034420155 0.07410689
0000a0 02 a2 14 3e 0b 24 8c 3d 91 6c 1d 3d a3 3e c2 3d
       0.14514926 0.06842812 0.038433615 0.09484603
0000b0 db e0 54 3d bf 35 d3 3d 64 74 82 3d f9 08 a7 3d
       0.05197225 0.10312986 0.06369856 0.08156008
0000c0 93 90 ac 3d e4 eb bc 3d d7 71 88 3b 9e 16 b3 3d
       0.08426013 0.0922468 0.0041639614 0.08744548
0000d0 04 f5 4d bb f7 62 a6 bc e9 9e 81 bc 41 59 72 3d
       -0.0031426558 -0.020310862 -0.015822845 0.05916715
0000e0 34 6d ea 3d 68 62 b5 3d e0 15 2a 3d 5f 67 91 3c
       0.1144661 0.0885666 0.041524768 0.017749486
0000f0 1d bd 1a bd f7 0a 9e 3d 32 e6 87 3b 55 90 6a bb
       -0.03777801 0.07716935 0.0041473145 -0.0035791595
000100 47 f5 16 3d 06 ae a4 bd a3 aa 72 bd d0 60 f1 bd
       0.03685501 -0.08041005 -0.059244763 -0.11786044
000110 1a 42 e5 bd 54 8b 44 bd b2 3e a0 be 48 86 e7 bd
       -0.111942485 -0.047984436 -0.31297833 -0.11304909
000120 07 79 23 be 3a f6 8a be 49 ff 90 be 5d f8 76 3d
       -0.15964137 -0.2714098 -0.28319767 0.06029545
000130 1a c7 c8 3c d7 bb 55 3c f1 34 ef 3c d8 5f 4a 3d
       0.024509002 0.013045273 0.02920005 0.04940781
000140 db f9 8d 3d ba 53 33 3d c2 9f 70 bd b1 9c f1 3c
       0.06932422 0.04378102 -0.058746107 0.029493662
000150 c8 84 ea b9 17 42 6b 3d f1 04 8a 3d 61 29 32 3d
       -0.00044730888 0.057436075 0.06739224 0.043496493
000160 a7 24 e5 3c 80 ab 02 bc ed 9e 9d 3d c8 8c 90 3d
       0.027971579 -0.007975459 0.07696328 0.07058102
000170 36 39 54 3c 0a d4 bd bb 10 a4 1b 3d d8 56 2f be
       0.012953093 -0.0057930993 0.03799826 -0.17122972
000180 00 42 1e be 1d 69 e7 bd 7d cb d2 bd ee 76 06 be
       -0.15454865 -0.11299346 -0.102927186 -0.13131306
000190 99 77 3e bc a2 39 b9 3c d6 63 12 3c 78 94 92 3d
       -0.011625194 0.02261049 0.008934936 0.071572244
0001a0 36 83 3e bd b3 0a 30 3d de e8 ca 3d af ba be 3d
       -0.04651185 0.042978954 0.09907697 0.09312951
0001b0 bf 8d f0 3d 52 17 bb 3b 51 18 28 3d 93 5e 94 3d
       0.11745786 0.005709567 0.041038815 0.07244601
0001c0 79 c8 e2 3c b4 60 0f 3e fd 65 04 3d 69 56 2a bd
       0.027683483 0.14001733 0.032323826 -0.041586313
0001d0 24 52 04 bd 28 f8 db bc b9 3a 9f 3c 04 cc 9b bd
       -0.032304898 -0.026851729 0.01943718 -0.07607272
0001e0 2d 1c b7 bd a0 02 1c be 39 4e 14 be 75 d9 13 be
       -0.08940921 -0.15235376 -0.14482965 -0.14438422
0001f0 77 5f 6b be 8a 20 93 bd 52 01 10 be fa b6 e6 bd
       -0.22985636 -0.07183941 -0.14063004 -0.11265369
000200 e7 71 52 bd b0 17 cf bc f9 d1 4c 3c b7 d2 cc bd
       -0.051378157 -0.02527985 0.012501233 -0.10001128
000210 e3 e2 ab bd 4e d0 a1 bd 27 40 b1 bd d1 25 61 3d
       -0.083928846 -0.07901059 -0.08654814 0.054967705
000220 81 a9 06 bd c8 69 86 bd 06 f1 8d bd 0b 49 87 bc
       -0.032876495 -0.06563145 -0.06930737 -0.016514322
000230 6c 8d 74 3d 20 37 92 3d 1a 31 0d 3d c5 ea 9e bc
       0.059705183 0.071394205 0.034470655 -0.019399056
000240 ec be 34 3d 68 83 10 3e c1 f2 85 3d fe 4a 70 3d
       0.04412739 0.14112628 0.06540442 0.058665268
000250 76 28 c2 3c 71 26 ba 3c 61 8e 61 3d 8c 04 a1 bd
       0.023700934 0.022723408 0.055067424 -0.078621954
000260 ff c6 a2 bc c9 4a 02 bd f8 8c 68 bb 26 7c c0 3a
       -0.01987028 -0.031809602 -0.0035484415 0.0014685437
000270 16 6c fa bd df b8 e7 bd 37 4e 37 bc fd 8e b3 3c
       -0.12227647 -0.11314558 -0.0111880815 0.021918768
000280 34 5c e4 bc 0f 65 c8 bd 0b b2 47 bd a2 f2 94 bd
       -0.027875997 -0.097849004 -0.04875378 -0.07272841
000290 9c ac 12 bd 42 58 01 be 6b cf ea bd b8 74 dd bd
       -0.035809144 -0.12631324 -0.11465343 -0.10813278
0002a0 78 f3 a0 bd f2 de dc bd cc 17 40 bd f1 9a 53 bd
       -0.07858938 -0.10784711 -0.046897694 -0.051661436
0002b0 1b 26 fb bd 4e 34 16 bd 3e 8c 36 bb 9f 59 30 3d
       -0.122631274 -0.036670975 -0.0027854587 0.04305422
0002c0 8f e3 1c bc 06 a5 7e bd e4 8e b5 bb 60 aa 85 3c
       -0.009575739 -0.062169097 -0.0055407155 0.016316593
0002d0 c6 73 4c 3d 36 1a 3a 3d aa a2 71 3b 7e 26 1e 3d
       0.049915098 0.045435153 0.0036870637 0.038610928
0002e0 3a bc 37 bd 4e fd 46 3c 66 c2 be bc 64 7a 0a bc
       -0.04485724 0.0121453535 -0.023286056 -0.008452032
0002f0 46 4a 81 3d b3 7a ac 3c 9a 5b 16 3c a9 00 2d 3c
       0.06312995 0.021054601 0.009177113 0.010559239
000300 03 9f 9f bd 1d 8c 8b bc bf 12 9c bb d8 d5 29 be
       -0.07794001 -0.017034585 -0.004762977 -0.16585481
000310 cb 32 4f be 82 2f 91 be e7 05 5b be 0c bb f3 bd
       -0.2023422 -0.28356558 -0.2138897 -0.11900911
000320 04 06 97 bc 9a b9 17 3c 3f c6 88 bc e2 5a 0d bd
       -0.018435486 0.009260559 -0.016696094 -0.0345105
000330 c0 15 69 3d a0 4b 96 b6 f1 6c 0e bd 4f 97 78 bd
       0.056905508 -4.4791523e-06 -0.034771863 -0.060691174
000340 8e 1a c5 bb 06 96 c2 3c 34 fe c4 3c 4b 69 05 bd
       -0.0060151285 0.023753177 0.024046995 -0.03257112
000350 b3 c2 4a bd 40 d7 14 bc c5 6c 35 3c 81 14 da 3d
       -0.049502086 -0.009084523 0.011073296 0.10648442
000360 4b bb 3f 3d a1 1e 87 3d 80 31 ad 3d f6 cc 2f bc
       0.046809476 0.06597639 0.08456707 -0.010730019
000370 6d db c1 bd 03 e4 58 bd 76 d6 8d 3c ad 80 ad bc
       -0.0946568 -0.052951824 0.017314177 -0.021179521
000380 33 d3 e7 bd 7d 29 89 bd f8 73 f9 bd b8 ba 69 bd
       -0.1131958 -0.066973664 -0.121803224 -0.057062835
000390 e3 54 4e bd 40 05 a1 b8 d8 b9 05 be 67 60 ac bd
       -0.050373923 -7.678056e-05 -0.13059175 -0.08416825
0003a0 ab 67 2c bd cf 49 af bc 54 47 7c bc 97 42 96 3d
       -0.042091053 -0.0213975 -0.015397865 0.0733692
0003b0 f0 fb 5d 38 5d fa 84 3b d2 ac 33 ba 3c 41 5c 3d
       5.292514e-05 0.004058166 -0.00068540603 0.05377315
0003c0 bd 45 1a 3c fa fe 1b 3e ba 93 13 3e 85 e7 8f 3d
       0.009416041 0.15233985 0.14411822 0.07026581
0003d0 09 87 4e 3c 00 d7 60 bd 4d 16 03 bc 76 68 98 bb
       0.012605437 -0.05489254 -0.008000922 -0.0046511246
0003e0 3e 0f 01 bb 45 ab 34 3d ef 2e 54 3d 6f a5 3c 3d
       -0.0019692923 0.044108648 0.051802572 0.046056207
0003f0 6c b9 60 3d 28 8c 2c 3b cc bf b0 3c 30 66 1c 3d
       0.054864332 0.0026328657 0.02157583 0.03818339

conv3.0.bias f4 [120]
000000 f7 92 13 3e f7 ef 03 3e 31 47 03 bd 04 35 1f bc
       0.14411531 0.12884508 -0.032050315 -0.00971723
000010 ae 71 06 bd 23 af 62 bd 97 84 1b be a4 7a 7e be
       -0.032823257 -0.055342805 -0.15187298 -0.24851471
000020 12 51 4b 3e 59 45 d0 b9 27 03 47 be de 5d 48 3e
       0.19855145 -0.0003972452 -0.19434796 0.19567057
000030 03 64 47 be a5 92 50 be 4e 07 53 3e b5 16 b2 bd
       -0.19471745 -0.2036844 0.20608255 -0.08695737
000040 a0 01 9a 3e 18 24 e3 3d 55 49 11 be ba fe 4a be
       0.30079365 0.11090869 -0.1418813 -0.19823733
000050 35 25 ba 3d 7b d8 d0 3c 70 cd 29 3e 62 ef 61 3e
       0.09089128 0.025493851 0.16582274 0.22063974
000060 07 05 c9 3b e1 8b 13 3b 03 15 16 be 05 09 29 be
       0.0061346325 0.0022513794 -0.14656453 -0.16507347
000070 c7 64 bc 3d f8 2c a1 bd 4f 03 e4 3d 34 83 a4 be
       0.09198909 -0.07869905 0.111334436 -0.3213135
000080 a9 6a 6f 3e 56 5e 8e 3d ba ea 5b be 52 52 7d be
       0.23380531 0.06951587 -0.2147626 -0.24738434
000090 29 89 80 be 34 a5 7f be 95 30 72 be d4 40 82 bd
       -0.25104645 -0.24965364 -0.23651345 -0.06360021
0000a0 f9 11 3a bd b8 a7 31 bd 15 60 0c 3e f0 50 a4 3e
       -0.045427296 -0.04337284 0.13708527 0.32093
0000b0 6b 13 f5 3d 77 9b d5 bd d5 41 b7 3d 52 e3 0e be
       0.11966594 -0.10430043 0.08948103 -0.13953903
0000c0 dd 65 d8 3d 79 bb 45 3e 26 0f 11 be ff a6 5f 3e
       0.10566304 0.19309796 -0.14165935 0.21841048
0000d0 8d fa 92 3e dc 85 89 bd e6 f9 88 3d f7 f2 80 3e
       0.2870678 -0.06714985 0.06688289 0.25185367
0000e0 32 f0 90 be ce 31 3a be d0 ff 21 3d 25 69 f9 bd
       -0.28308254 -0.18183061 0.039550602 -0.12178258
0000f0 ec 92 15 be c2 62 ad bc ea 9d 89 be d3 c4 29 bd
       -0.14606827 -0.021165255 -0.2687829 -0.04144747
000100 ec 4b e3 bd 91 00 51 be 71 a9 6c be e6 e3 29 ba
       -0.11098465 -0.20410372 -0.23111512 -0.0006480798
000110 76 6d 07 be 7a cc e9 bd 96 be 60 bd a4 08 2b 3d
       -0.1322535 -0.11415954 -0.054869257 0.041756287
000120 b3 b5 40 bd 76 ce f4 bb eb c0 27 3d 04 dd 71 3e
       -0.047048282 -0.007470901 0.040955465 0.23619467
000130 6c 19 3c 3e d7 c5 f6 bd 2b 31 60 3e 67 60 49 be
       0.18369073 -0.12049454 0.21893756 -0.19665681
000140 2a c1 2c bd 8a 0d 3c be 30 25 74 be 0d ca 27 3e
       -0.042176403 -0.1836454 -0.23842311 0.1638567
000150 0d f4 5a be 9f 50 96 be 87 6c e9 3c 77 a9 dd bd
       -0.2138216 -0.29358384 0.028494133 -0.108233385
000160 27 97 96 3e 32 62 02 3e cb e6 1b 3e ed 62 86 3d
       0.29412195 0.12732771 0.1522476 0.06561837
000170 07 78 d3 bd 54 b9 83 be be fa 6b 3d ff a0 51 3e
       -0.10325628 -0.25727332 0.057612173 0.20471571
000180 5a 81 c8 bd 8f 03 33 3e 62 0f e4 3c 8a 9f 5f be
       -0.09790297 0.17481826 0.027839366 -0.21838203
000190 15 9e 31 be 43 d3 af bb 7b a6 5c be 23 b2 10 3e
       -0.1734546 -0.0053657605 -0.21547882 0.14130454
0001a0 b5 de a8 3c 84 58 2f bd 8f 45 6b be 2d 6f c3 bd
       0.020614007 -0.042809024 -0.22975753 -0.095426895
0001b0 3e b6 c7 bd 2c 48 6f 3e 5c f4 59 3e c8 c1 56 3e
       -0.09751557 0.23367375 0.21284622 0.20972359
0001c0 c8 61 29 be 62 17 02 3e 7a 7d 04 3d 68 0a d7 3d
       -0.16541207 0.12704232 0.032346226 0.10500032
0001d0 92 cd 0a 3e e0 4b 86 3c d7 f6 af 3d 56 29 4c 3c
       0.13554981 0.016393602 0.08592003 0.012461027

fc1.0.weight f4 [84, 120]
000000 7c 78 f2 3d 86 97 9b 3d 05 23 5f bd d7 51 94 3d
       0.11839387 0.0759726 -0.054476757 0.07242172
000010 de 7d c6 bd 1b e9 a9 bd f7 b8 52 3d fc 8e 30 be
       -0.09691976 -0.082964145 0.051445927 -0.17242044
000020 fd fa 39 3d 3c 72 95 bd 2d 5e 5c 3d 59 f6 cf bc
       0.045405377 -0.07297179 0.05380075 -0.025386022
000030 5b 57 d8 bc 58 af 34 3d f7 30 db bd a4 98 13 be
       -0.026408842 0.044112533 -0.10702699 -0.14413697
000040 48 92 94 3d 47 be c3 3c 48 5b c7 bd b5 ea 6f be
       0.072544634 0.023894442 -0.097342074 -0.23429377
000050 6a 29 91 3d 42 80 31 3d 26 80 da bd 35 1b 5d 3e
       0.07087977 0.043335207 -0.106689736 0.2159241
000060 34 2b d4 bd 77 6c b0 3d 57 0f 70 3c 20 ff b3 bd
       -0.10359803 0.08614438 0.014652095 -0.087888956
000070 f5 64 18 be 2e 47 77 bd eb c1 eb bb 6e f9 ef bd
       -0.14882262 -0.060370617 -0.0071947477 -0.11717497
000080 8c d2 8d 3d 59 76 3d 3e c9 27 4a 3d 1f ce 66 be
       0.06924924 0.18502177 0.04935435 -0.22539566
000090 e7 40 2c be 0e c0 0b bc b8 e4 9b bd 1e 99 a0 bc
       -0.16821633 -0.008529676 -0.07611984 -0.019604262
0000a0 41 db 90 bd 2f 03 42 3c 83 35 c1 3d 4b 75 08 3e
       -0.07073069 0.011841579 0.09434035 0.13325994
0000b0 3c 3b 3a 3d 8b 7c b0 3d c9 fb 04 be a8 e6 4f be
       0.045466647 0.08617505 -0.12986673 -0.20302832
0000c0 04 d0 49 bd 70 d8 8c bd 06 cb 5a 3c 39 81 fd 3d
       -0.049270645 -0.0687722 0.013354069 0.12378163
0000d0 5b 9e 5c 3c 8e d3 06 be 7e f6 96 3d a8 15 41 3c
       0.013465489 -0.13166639 0.073712334 0.011784948
0000e0 f1 2e da bd fc 50 bd bc b5 3d a4 3d e7 4a 76 3e
       -0.106534846 -0.023109905 0.08019582 0.2405201
0000f0 aa 29 12 3e 5e 87 a3 3b 7b 0c 28 bd 04 e8 63 3b
       0.14273706 0.0049905023 -0.041027527 0.0034775743
000100 00 96 cd bd 97 f4 48 be 7e 0f 39 be a2 d7 51 bd
       -0.10038376 -0.19624554 -0.18072316 -0.051231034
000110 05 90 73 bd a0 1b ca 3d 90 1f 00 be 40 67 1d be
       -0.05946352 0.0986855 -0.1251204 -0.15371418
000120 aa 22 90 bd 4d 66 e6 bd 0c ba 9e bc b2 5f cc bd
       -0.07037862 -0.11249981 -0.019375823 -0.0997919
000130 f1 4b 10 bd 16 46 0c be 6a 52 17 3e 4c 56 0c bd
       -0.035228673 -0.1369861 0.14777532 -0.034261987
000140 4c 77 8b bd f2 f6 87 ba 2d ef de bd 77 f6 d1 bb
       -0.068098634 -0.0010373278 -0.10885463 -0.0064075547
000150 f6 1c 3f be c7 16 38 be 6c cd 62 bc 3f e8 6e 3d
       -0.18663391 -0.17977439 -0.013842922 0.058326956
000160 22 63 e0 3d f2 7c c9 3c 2e ac c3 3d 74 8c 0e 3e
       0.10956408 0.024595711 0.09554325 0.13920766
000170 4f 27 91 3d 22 ae 84 3d e3 0e 3a 3d c0 40 12 3e
       0.07087576 0.06478526 0.045424353 0.14282513
000180 06 84 f7 b9 8b e8 19 bb 3e 3f 41 3e 33 32 c0 3d
       -0.00047209876 -0.0023484554 0.18871781 0.09384575
000190 2d 80 f7 bb 5a 28 d0 3d c0 ed 91 bd 74 8e d1 bc
       -0.0075531215 0.101639464 -0.07125425 -0.025580622
0001a0 31 31 10 bd 90 48 a9 bd 41 34 91 bc d3 80 16 bd
       -0.035203163 -0.08265793 -0.017725112 -0.03674395
0001b0 70 80 88 bd d0 0e 2b 3e a7 10 71 3d ba f5 f1 3d
       -0.066651225 0.1670487 0.05885377 0.11814447
0001c0 c4 6f 63 be 5c 49 91 3c de 11 f0 3b bc 17 18 3d
       -0.22210604 0.017735176 0.0073263487 0.03713201
0001d0 01 c7 47 bd 15 9e 30 3e a8 12 5b bd cb 58 06 3e
       -0.04877377 0.17247804 -0.05348459 0.1311981
0001e0 e2 8a b5 bd 8f f3 2f 3e f1 5d 76 3c e8 b7 58 3b
       -0.088643804 0.17182754 0.015037046 0.00330686
0001f0 17 c1 bf 3d 8a 5b a5 3d bc 8f 98 3c 32 ce c7 bc
       0.09363001 0.080741 0.018623225 -0.024390314
000200 4a 00 04 be 77 da 10 bc 5f 59 2a be 59 b7 1a be
       -0.12890735 -0.008841149 -0.16635655 -0.15109004
000210 b7 da 57 3d a8 bc f8 bd 0a a9 05 3d ac 9a b6 bd
       0.052698817 -0.12145358 0.03263191 -0.0891622
000220 a5 55 72 bc 55 ce b2 bd 28 e0 08 be 99 f5 06 be
       -0.014790927 -0.08730761 -0.13366759 -0.13179626
000230 47 73 bb 3d 29 35 58 bd bc 75 53 3e f1 50 96 3d
       0.09152847 -0.052785072 0.20650381 0.07339657
000240 4e b9 40 be f3 8c f7 bd 3c 41 74 bd f7 f8 9d be
       -0.18820688 -0.12087431 -0.059632525 -0.30854008
000250 b4 99 bf bd 77 0a 68 be 40 2f 00 be 2c 91 ff 3c
       -0.093554884 -0.22660242 -0.12518024 0.031197153
000260 48 64 6b 3e 0e 89 f0 bd 4e eb 45 3d 68 31 b0 3d
       0.22987473 -0.11744891 0.048320107 0.086031735
000270 14 5b 4c be 9e 39 9b bc 46 4b 11 3e 34 9b 82 bb
       -0.19956619 -0.018948372 0.14188871 -0.003985787
000280 c8 72 4c bd dd f2 37 bd 35 ce 5d bd 3f 9c b1 3d
       -0.04991415 -0.044909347 -0.054151732 0.0867238
000290 7f 8c b5 bc 4d 99 c4 3b 42 7a 0e bc 9e fb e7 bd
       -0.02216172 0.00599972 -0.008696141 -0.11327289
0002a0 2c d2 4e 3e ee de 29 3e eb 19 67 3d 70 cc 9b bd
       0.20197362 0.16588947 0.0564212 -0.07607353
0002b0 ee 99 37 3b c0 34 34 3e b8 93 60 bd 41 74 1f 3e
       0.0028015333 0.17598248 -0.054828376 0.15571691
0002c0 0c 21 07 3e 58 61 9d 37 64 17 8a 3d 6a 31 67 3e
       0.131962 1.8761188e-05 0.06742743 0.22577444
0002d0 1b d4 a4 bc c6 84 47 bd 62 7a 34 3d 43 44 ca bd
       -0.020120671 -0.048710607 0.044062026 -0.09876301
0002e0 be ec 87 be 90 42 f1 3d 58 3a 6f bd 6d 1e df bd
       -0.26547807 0.11780274 -0.05840525 -0.10894475
0002f0 82 bf d0 bd 75 4d 10 3e c8 d3 88 bd 54 e8 0e be
       -0.10192777 0.14092048 -0.06681019 -0.13955814
000300 ec 1c e5 bd d5 c7 9d bd d3 cb 64 3d 03 4d 0c be
       -0.11187157 -0.077041306 0.055858444 -0.13701253
000310 8c e3 fc bd d5 32 02 be 3d 83 f8 3c 33 22 90 bd
       -0.123480886 -0.12714703 0.030336017 -0.07037773
000320 7f a0 38 3d b9 d9 ff 3c db 36 04 3e 39 55 61 3d
       0.045074936 0.031231748 0.1291155 0.055012915
000330 5b e2 27 3e f4 bf 18 be ef 2a e7 bc 84 40 ec bd
       0.16394942 -0.14916974 -0.028218715 -0.11535743
000340 da 3e d1 3d 6f 45 30 be 46 9f 9f 3d 3d 71 37 3d
       0.10217066 -0.17213987 0.07794051 0.044785727
000350 ac 43 9c bd da 76 ec bd 18 64 06 3e 80 25 d7 bd
       -0.07630095 -0.11546107 0.1312412 -0.105051994
000360 91 77 1c bd 08 fb 12 3e 8e 66 17 bd ee b8 68 3d
       -0.038199965 0.14353573 -0.03696304 0.056816988
000370 fd 7a 77 3d 6f b1 2f be 9e 0a df 3d 9e 80 1a be
       0.060420025 -0.1715753 0.10890697 -0.15088126
000380 72 07 df 3d 6b 2f 4b be 4d 1f 0c bd f5 61 df 3d
       0.10890092 -0.19842307 -0.03420954 0.10907356
000390 d6 5e d8 bd 3c cb 70 be b3 0e 98 3d 73 a5 90 3c
       -0.105649635 -0.23515028 0.07424679 0.017657017
0003a0 45 0c 78 bd 3c 67 47 be 0a 81 a5 bd 3e 6e b2 be
       -0.060558576 -0.19472975 -0.08081253 -0.34849733
0003b0 ea 1e 5a be 29 68 31 3e 45 6d 31 be 4d 5a ea 3d
       -0.21300855 0.1732489 -0.1732684 0.11443005
0003c0 b8 df 1d 3e 1a 99 fc 3c 59 99 d6 3d 49 05 05 be
       0.15417373 0.030834723 0.104784675 -0.12990297
0003d0 7a 0a 6e 3d ad 1f a6 bc 15 42 24 be e5 7b aa 3d
       0.05811546 -0.020278776 -0.16040833 0.08324412
0003e0 f0 6c 42 be a2 b4 26 be 06 00 a8 bb ce 1c a4 3b
       -0.18986869 -0.16279843 -0.005126956 0.0050083166
0003f0 d5 2c 55 bd 4a 6c c6 3c c2 72 07 be 2e ed 13 3d
       -0.05204471 0.024221558 -0.1322737 0.036114864

fc1.0.bias f4 [84]
000000 53 70 6e 3e 45 f2 32 3e 08 35 b2 bd 67 0e 4c 3e
       0.23285036 0.17475231 -0.08701521 0.19927369
000010 bc 14 53 3d 9e 8f 9d be d4 31 9f 3d de 8c 65 3e
       0.051533446 -0.30773634 0.07773176 0.22417018
000020 3a 6c 45 3d 7c 5b 02 be bf 9e b0 bd a2 d4 46 be
       0.048198916 -0.12730211 -0.086240284 -0.1941705
000030 7b d7 a9 3e f4 27 3d 3c 77 6f c0 3b 9f e6 c0 bd
       0.3317221 0.01154517 0.0058726626 -0.094189875
000040 02 8b 86 be 1f 6e 3a be 93 41 49 3e 03 51 87 3d
       -0.2627793 -0.1820607 0.19653921 0.06607249
000050 7a 93 bc bd b0 6d 0b 3e ce 2f 8a 3d f9 cb 1b 3e
       -0.092078164 0.13616061 0.06747399 0.15214528
000060 03 56 cc 3c 98 e3 df 3c 5b a6 ad 3d 26 15 69 be
       0.024943357 0.027330205 0.084789954 -0.22761974
000070 96 49 24 bd 0b 14 14 3e e6 ba 00 be 37 3f 3f 3d
       -0.04010924 0.14460771 -0.12571296 0.046691146
000080 a8 ce c1 bd d5 6e a4 be 4b 7d 84 3e eb 18 24 3d
       -0.09463245 -0.32115808 0.2587684 0.040062826
000090 02 47 ed 3c ff 9d 3f 3e 4c a2 5a 3d 90 8a a4 3d
       0.028964523 0.18712614 0.053377435 0.08034241
0000a0 23 65 b7 bd 61 0e 38 3e 3b 01 11 3e 5e db 22 3d
       -0.08954837 0.17974235 0.14160626 0.039759986
0000b0 3c 35 cf bd cb 49 85 3d a7 63 17 be 61 b0 e5 3c
       -0.101175755 0.065082155 -0.14784108 0.028038206
0000c0 55 7d 13 3d 54 07 cf 3d 85 9e 32 3e 65 cd 36 3e
       0.036008198 0.101088196 0.17443283 0.1785179
0000d0 81 31 18 3d 44 78 d1 bd 7d df 81 bc 8d ed 73 3e
       0.037156586 -0.10228017 -0.015853638 0.23821087
0000e0 04 22 83 3e c5 94 2d bc 58 e3 52 be 90 a0 eb 3d
       0.2561189 -0.010594551 -0.20594537 0.11505234
0000f0 42 2f 80 3d 8a f4 d7 bd 0e 7d 1c be e9 d7 c3 3c
       0.06259014 -0.10544689 -0.1528208 0.023906665
000100 5b c2 2f 3e 26 84 c2 3c 6b 7f 37 be f7 60 53 3e
       0.17163984 0.023744654 -0.179197 0.20642458
000110 2c 2b 93 3e f5 9a 90 bd 16 19 3e bd a1 22 10 3c
       0.28743875 -0.07060806 -0.046410643 0.008797319
000120 2f 4c f0 bd 5e 9f eb 3c cb 18 ae bd ba d1 d7 3d
       -0.11733281 0.028762516 -0.08500823 0.10538049
000130 db 62 4f 3e 4f fa 66 be 7f 4a d9 3d 9b af 4e bd
       0.20252554 -0.22556423 0.10609912 -0.05046044
000140 e7 91 82 bd 8c 39 99 bc a6 9a 02 be a5 23 46 be
       -0.06375485 -0.018704198 -0.12754306 -0.19349535

fc2.weight f4 [10, 84]
000000 02 e7 13 3e b5 f2 c9 bd bb f3 84 3c f8 5c d0 3d
       0.14443591 -0.09860746 0.016229501 0.101739824
000010 24 23 d4 bc 08 d1 80 3e e1 9f 87 3e d0 06 80 3d
       -0.025895663 0.25159478 0.26489165 0.062512994
000020 65 b5 12 be 00 db 58 3e f5 11 87 3e 6e ee 69 be
       -0.14327009 0.21177292 0.26380888 -0.2284486
000030 bd 7a c2 3e df 11 91 bc c0 0a d6 3c 62 a5 93 3d
       0.37984267 -0.017708717 0.026128173 0.07209279
000040 a1 e1 65 be 71 93 1e be 75 19 a5 3d bc 9c fc 3c
       -0.22449352 -0.15485932 0.08061496 0.030836456
000050 86 38 2b bd a4 64 af 3d 67 dc 35 3d 74 1f 7f 3e
       -0.04180195 0.085641176 0.044399645 0.24914342
000060 59 d2 01 be 26 4f 34 3e 06 7a 66 3e ed 59 12 be
       -0.12677898 0.17608318 0.22507486 -0.14292116
000070 7d a9 92 bc 30 a8 77 3e 56 ff 2c 3d 3b b6 d5 bd
       -0.017903084 0.24185252 0.042235695 -0.10435148
000080 a0 e5 08 bd f4 58 68 be 63 d3 06 bb 0b 20 fb bd
       -0.033422112 -0.22690183 -0.0020572774 -0.12261971
000090 f2 6b 27 bd 46 ea 26 3e 65 7f 6b 3e 3c 5e 9f 3d
       -0.04087443 0.16300306 0.22997816 0.07781646
0000a0 90 f6 8e be 6a eb 31 3e 58 51 4e 3e cf 40 19 3d
       -0.27922487 0.1737496 0.20148218 0.037415322
0000b0 49 99 53 3e a9 32 5c 3d 59 42 14 3e 23 e3 24 3e
       0.20663942 0.05375925 0.14478435 0.16102271
0000c0 46 82 e6 bd fc 26 56 3e 2b e0 97 3e 3b 21 67 3e
       -0.112553164 0.20913309 0.29663214 0.2257127
0000d0 01 07 9e 3d 09 49 85 3e 83 96 46 be 90 8d c7 bd
       0.0771618 0.26032284 -0.19393353 -0.09743798
0000e0 ee d5 e2 3d 7f 35 d4 3d 1a 6b 83 be 55 c6 4c 3e
       0.1107596 0.10361766 -0.2566765 0.19997533
0000f0 96 5b ae 3d bc 0a a4 bd b3 a4 3e bd 64 b1 c2 3d
       0.085135624 -0.0800986 -0.04654379 0.09506491
000100 9a c4 0a be 55 ef 80 3e 70 c7 37 ba 3d 83 9a bd
       -0.1355156 0.25182596 -0.00070106145 -0.07544563
000110 f0 09 43 3d da 1e 04 bd b4 fa 3a 3d e6 f0 61 3e
       0.0476169 -0.032255985 0.045649245 0.22064552
000120 ff f1 52 be 07 83 84 be 23 68 9a be e7 fe 9c bd
       -0.20600127 -0.25881216 -0.30157575 -0.07665806
000130 3b 08 6c 3e 0a 66 55 3c 83 63 3c 3e 9f e6 8d be
       0.23050015 0.013024816 0.18397336 -0.27715012
000140 ac ad f5 bd 07 6a f2 3d 0e 6d 8f be c2 50 e0 bd
       -0.11996016 0.11836629 -0.2801289 -0.10952903
000150 75 16 3d 3e a2 94 2e 3d 1e d2 c0 3d c2 5c 6c 3e
       0.18465598 0.042622216 0.09415077 0.2308226
000160 c3 c6 09 bd 8b fa 8f bd 98 2e 5a be 25 b4 73 3e
       -0.03363682 -0.07030209 -0.21306837 0.23799188
000170 ae 6d 11 3e 2e 65 37 be 45 9e 22 be 10 9d f3 bd
       0.14201996 -0.1790969 -0.15880688 -0.11895192
000180 46 da 03 3e 3a b2 fa 3c e3 50 5c 3e 0c 21 01 be
       0.12876233 0.030602563 0.21515231 -0.12610263
000190 0e b8 a7 bd 74 73 c5 bd 9b 9c f0 3c 72 ba 82 3e
       -0.081894025 -0.096411616 0.02937155 0.2553287
0001a0 3f 06 6e be 0a 37 aa 3d b8 68 ef bc dd 73 06 bc
       -0.2324457 0.08311279 -0.029224738 -0.008206335
0001b0 ff 22 a1 3e f9 bc 04 be f4 9c 18 be 9e 26 84 3c
       0.31472012 -0.12962712 -0.14903623 0.016131695
0001c0 45 0a 3a 3e 25 b5 a1 3e 1d dc 08 be 6a 16 a7 3e
       0.1816798 0.31583515 -0.13365217 0.32634288
0001d0 e0 70 74 3b 67 8c a0 be c2 ab 2d 3e 3e 46 3f 3c
       0.0037298724 -0.31357118 0.16960052 0.011674462
0001e0 44 a6 f1 3d d4 d7 6d 3e 7f e7 8d 3d cb 0a f0 bc
       0.11799291 0.23226863 0.0692892 -0.029302021
0001f0 dd d4 ef 3d 3e 40 f8 bd 62 73 ad 3c ba bb f2 3d
       0.11710522 -0.12121628 0.021173183 0.11852212
000200 21 63 16 bd 1b bc 0a 3e 5a 12 87 bc ee 07 63 be
       -0.03671563 0.13548319 -0.016488243 -0.22170994
000210 4a 09 7c bb eb 6c a6 3e 92 52 48 3c 47 a2 49 3e
       -0.0038457685 0.32504973 0.012226718 0.1969081
000220 49 58 7f be f5 a5 a3 be 39 15 a1 bd 21 bf 76 3e
       -0.24936022 -0.31962553 -0.07865376 0.24096347
000230 aa 29 8b 3d b4 ce e8 bd 0a 9e 7c be 4f 55 90 3d
       0.06795056 -0.113675505 -0.24669662 0.07047521
000240 37 69 3a bd 77 c4 61 be c9 2a c7 bc ae f8 a8 3d
       -0.045510497 -0.22047602 -0.024312394 0.08250557
000250 d7 77 76 3e 87 cf 67 be 01 5e 3c be 09 ce 69 3e
       0.24069153 -0.22637759 -0.18395235 0.22832502
000260 fe aa ae 3e b3 3f 51 be 24 13 89 be 9a 12 58 be
       0.34114832 -0.20434456 -0.26772416 -0.21100846
000270 58 cd ad bd b4 7a 68 3d ad b7 d0 3c 51 0d ff bd
       -0.08486432 0.056757644 0.025478208 -0.12453712
000280 f9 97 02 3e 00 32 81 be a4 07 34 3e e9 08 67 be
       0.12753285 -0.2523346 0.1758104 -0.22561993
000290 ec 91 30 3e 8c 2b 7e 3d c8 fd 11 3e fd 9c 2e be
       0.17243165 0.06205325 0.14256966 -0.17052074
0002a0 8d 1a e1 3c ff e6 e1 bd 21 d4 d3 3b 29 4c fc bc
       0.02747848 -0.11030387 0.0064644967 -0.030798035
0002b0 c7 d9 67 be a0 7a 0e bd 58 36 aa 3d a0 c0 7a 3e
       -0.22641669 -0.034784913 0.083111465 0.24487543
0002c0 02 c4 74 bd 17 77 b6 bb ed 2d 95 bc 40 4b 1f bb
       -0.05975724 -0.005568396 -0.018210376 -0.0024306327
0002d0 a8 9c b0 3d d5 09 e8 3d ef 58 a0 bd 03 1d 66 be
       0.0862363 0.1133 -0.07829463 -0.22472005
0002e0 1a 5c 90 3d ea 70 b3 bd 30 63 9d bd 70 0e 0f be
       0.07048817 -0.08761771 -0.07684934 -0.13970351
0002f0 0b bc 0f be f6 a3 17 3c 54 f6 91 3e 00 4e 38 3e
       -0.14036576 0.0092554 0.28508246 0.17998505
000300 5e 3b 1a be 4e 6b 1d be f4 30 82 3d 9f b8 a9 bd
       -0.1506171 -0.15372965 0.06356993 -0.08287167
000310 88 dd 77 be 90 4f 85 bd 90 b9 d1 3d ab 32 9e bd
       -0.24205601 -0.06509316 0.10240471 -0.07724508
000320 4c c2 2f 3e 4d 08 ab bd bc c9 8d bd 8c 79 24 3e
       0.17163962 -0.083511926 -0.069232434 0.16061991
000330 b8 f5 7d 3e af c9 89 3c 2e 8f 16 be 61 e1 58 be
       0.24800766 0.016819803 -0.14703056 -0.21179725
000340 26 29 8c 3d 19 95 a6 bd e1 1b 30 3e 36 19 0d 3d
       0.06843786 -0.08133907 0.17198135 0.03444787
000350 3e 46 48 bb 43 77 66 be 12 59 29 3d 7b 40 e7 bd
       -0.0030559446 -0.22506432 0.04134471 -0.112915955
000360 a2 f1 f0 bd 39 c3 14 be c8 c4 24 be ec 18 5a 3e
       -0.11764838 -0.14527597 -0.16090691 0.2129857
000370 53 91 6b 3e df a4 14 3e 3a 23 c3 3d c1 85 4f 3d
       0.23004656 0.14516018 0.09528203 0.050664667
000380 0e 05 86 3e 6c 09 29 3e fb eb 96 bd 88 1f 78 3b
       0.2617573 0.165075 -0.073692285 0.003786059
000390 3f 00 d5 3d ad ab e9 bc 0d 5d 24 be 6d 87 1a be
       0.104004376 -0.028524244 -0.16051121 -0.15090723
0003a0 3f e2 0a bb ca 20 94 3e ef fe ab 3e 13 a3 74 bd
       -0.0021191982 0.28931266 0.33592936 -0.059725832
0003b0 a9 1a 68 be 27 db da 3d 82 a6 87 3e 29 07 9a 3e
       -0.2266642 0.10686331 0.26494223 0.30083588
0003c0 37 47 a2 3e 27 37 85 bd 80 ab 92 3e 02 6e bd bd
       0.31694958 -0.0650466 0.2864647 -0.09249498
0003d0 6c d4 02 bc b2 7a a8 3d 27 9d 9e be 6d a9 67 3e
       -0.007985216 0.08226527 -0.30979273 0.22623225
0003e0 c0 e9 c2 bd 2d 91 59 3e e3 90 9f be d3 39 e7 3b
       -0.095172405 0.21246786 -0.31165227 0.0070564537
0003f0 51 b8 71 bd a8 e2 39 be 3e 94 46 be 5d 74 6e bd
       -0.05901367 -0.18152869 -0.19392487 -0.05821644

fc2.bias f4 [10]
000000 7c d9 75 3e ec 85 2e 3e ca 63 b0 3d bb 65 32 bd
       0.24008745 0.17043275 0.08612783 -0.04355405
000010 10 95 8d bd 63 c8 87 bd 42 c5 96 bd fb 87 93 3d
       -0.06913197 -0.066300176 -0.07361843 0.072036706
000020 37 9a 09 be cb 62 b2 3d
       -0.13437735 0.087102495
