learn/checkpoints/model_0.44994_50.pth (torch, 251571 bytes, 10 tensors)

conv1.0.weight f4 [6, 3, 5, 5]
00000000: fc36 f13d 90fb 043e 410c 6b3c e610 273e
00000010: dcef 5d3d d4dc 993d f63e 403c 9bc1 163e
00000020: 7487 433e 7c9c 803c 737e 083e e4a6 973d
00000030: 89e3 173e 10a6 ae3d 016f 0d3e 599f 7bbc
00000040: 8263 d43d 0b6c 153d 4e56 febc 1e43 9a3d
00000050: cdda 9cbd dc73 07bd beee 8fbd 4dac 6f3d
00000060: 01ed 9bbd b3ae 28bd 71e5 a6ba 63ac e8bc
00000070: 12d1 5f3d 6b53 8fbd f29c d23d bb6d 91bd
00000080: f2fa 033e a2f5 673d f613 fabb ccd0 d93c
00000090: d142 833b 4de4 b83d 8567 c63b 1375 44bd
000000a0: 81ea 50bd 582a b3bd 94d0 28bb 9a30 343d
000000b0: 1ebb 383c 3377 10be b436 aabb 91f9 55bd
000000c0: e6db c7bc 6c0a 13be 8bc8 cabd c9fd e9bb
000000d0: 9a72 38bd a247 033e c7f0 483d 7ec6 513d
000000e0: 1295 8b3d bee0 1a3d 5271 ef3d 296b 9fbd
000000f0: 1ea4 09bd 5cb6 b7bd 6e6b 013d e38b 6bbd
00000100: 964f 7dbb 538e e2bd 3b9c 163d 4fbc ffbd
00000110: 7cd4 12be 6835 20be 27d5 88bb 6aa1 35bd
00000120: 1ed9 e13c e3fe 4bbe 4d9b 69be 3093 813d
00000130: d012 7b3d 864e 2d3e dde9 0f3e bd33 413e
00000140: 67ad 833d 3685 da3b 3b0f de3d 2c7d 06bd
00000150: 6cda ab3d 455b ae3d 4cb3 fe3d 84be a8bd
00000160: 8205 b6bd e35e 113c 4f1a e53d 8f96 113b
00000170: 8acc 4f3d 274b d73c 985c 04be f0b4 36bc
00000180: f47a e23d 8caf 95bd 98ec cebd 9f70 28be
00000190: 345a 3db9 e2bc a63d 376d d23c cbcb 81bd
000001a0: 0bb5 793c f339 11bd e157 b7bd d2c5 b0bd
000001b0: dc97 1cbe c59b 01be 2647 1c3e 417b 063c
000001c0: b21f babc b50f 4dbe b7e8 28be edf7 a3bc
000001d0: 2449 95bc 66b6 3cbe f791 28be aef3 35be
000001e0: ef1c e5bb 7488 c8bd 6123 d0bd 2c31 4abe
000001f0: a882 43be 7582 b2bc f00b d3bb dadb 89bd
00000200: efb0 db3d 47cd 61bc 25ad 1e3e 6f35 813d
00000210: 2652 c2bd 53fd 7f3d da82 3bbd 02bf f53c
00000220: 5bef 7cbd b948 ebbd caf8 133c 0320 2dbd
00000230: 8d10 f43d 1c6b 82bd 2d8a a73d e6ac e1bd
00000240: 38b4 11bd 2183 b43d 94f0 ae3d a5d8 b83d
00000250: e3c1 b13d 40c2 c8bd 823d 9cbc 2724 fcbd
00000260: 3d2c 9bbd 804d f3bd 48f7 cf3d 8703 ffbd
00000270: a9be 41ba 0d4c 0dbc 76be b43c 873a 36bd
00000280: efd3 f33d da6b fd3c 8dc1 1d3d 72ca 55bd
00000290: 3735 ee3d f6f0 e03c 08aa 38bb 9077 303e
000002a0: 765c f33d fac0 153d 4366 14bd 6c0f cf3c
000002b0: 99ce ec3d 6997 293d 8b31 843c 4575 d0bd
000002c0: d339 19be f675 9abb 16cb 793d 7b45 0cbe
000002d0: 5789 bfbc 9fa5 373c 25a7 e5bb afc7 47bd
000002e0: 5654 613d cda2 8a3d 8ea5 873d bfd6 d83c
000002f0: 395a ef3c 994e 7d3d ccff 9b3c 6397 0d3d
00000300: 9ef4 2f3e a342 523e b290 983d dbd4 dcba
00000310: f613 663d aebe 9b3d 60b5 f33d 7a38 dc3d
00000320: 4a81 96be ff8a 51be a37b 21bd 7c44 b6bd
00000330: dd77 2bbe 00ac 3dbe 2842 21be 12f6 26be
00000340: 5144 bebd 12a2 2fbd 0e39 343d 4718 843d
00000350: 8a61 79bd fa2d f7bc 0dd0 89bc 28b8 e03d
00000360: dbce 883d 5880 623d f976 023e c83e 2cbc
00000370: 49fd eabd 9a28 c43d 01ba d1bb e6de 953c
00000380: 1bac ebbd 8900 4e3e 3a5c 3d3e efc1 083e
00000390: ac17 c13c 2167 6cba 0a0d 313d 8b84 443e
000003a0: 1cb4 1a3e f822 523e ee4f 393e 6189 c83d
000003b0: 2dcb 0b3d f1e5 83bd 7567 7ebd 8437 63bd
000003c0: 5ad7 ea3c c20e dfbd ec80 b3bd b488 edbd
000003d0: 334f 4cbd 6693 fcbd caa9 1cbe 3576 55bd
000003e0: 8c0e dbbd 9d7a e33c 2bde 93bc b423 abbd
000003f0: 7104 623b 27c5 6e3c da77 963d 6f1a 95bd
0.117780656 0.12986588 0.014346183 0.1631504 0.054183826 0.07512823 0.011733761 0.14722292
0.1909464 0.015699618 0.13329487 0.07404879 0.14832892 0.08527768 0.13811876 -0.015357816
0.10370542 0.03647999 -0.031047013 0.07532333 -0.076589204 -0.033069476 -0.07027958 0.05851393
-0.07613564 -0.04118223 -0.0012733174 -0.028402513 0.054642744 -0.069983326 0.10283841 -0.071010076
0.12888697 0.056630738 -0.007631774 0.02658882 0.004005768 0.0902792 0.006054821 -0.047963213
-0.05100489 -0.08748311 -0.0025759088 0.043991663 0.011275081 -0.14107971 -0.0051945094 -0.05223996
-0.024396848 -0.14359444 -0.09901532 -0.0071408493 -0.045031168 0.12820294 0.04905775 0.051214688
0.06815542 0.037811987 0.11691536 -0.07784111 -0.03360378 -0.08970329 0.031596594 -0.057506453
-0.0038652173 -0.110623024 0.036770087 -0.12487089 -0.14338869 -0.15645373 -0.0041758004 -0.04434339
0.02756935 -0.1992145 -0.22813149 0.06326902 0.061297238 0.16924486 0.14054056 0.18867393
0.06429558 0.006668712 0.10842749 -0.032834217 0.0839127 0.08513502 0.12436542 -0.08239463
-0.08887769 0.00887272 0.111866586 0.0022214984 0.050732173 0.026280953 -0.12925947 -0.011151537
0.11058608 -0.073088735 -0.101037204 -0.16449212 -0.00018058048 0.08141495 0.025686843 -0.063376985
0.015240918 -0.035455655 -0.089523084 -0.08631481 -0.15292305 -0.12657078 0.15261516 0.008208097
-0.022720192 -0.20025523 -0.16495024 -0.020015681 -0.018223353 -0.18428954 -0.16461931 -0.17768738
-0.0069919745 -0.09791651 -0.10162998 -0.1974532 -0.1909281 -0.021790722 -0.006440632 -0.067313865
0.10727107 -0.013781852 0.15495737 0.0630902 -0.09488325 0.06249745 -0.045779087 0.029998306
-0.061751705 -0.1148848 0.009031484 -0.042266857 0.11917219 -0.06368086 0.08180652 -0.11019306
-0.03557226 0.08814073 0.085419804 0.09025697 0.08679559 -0.09802675 -0.019072298 -0.12311583
-0.07576797 -0.11880016 0.10154587 -0.12451845 -0.00073907763 -0.008624089 0.022063475 -0.04448941
0.119056575 0.030935217 0.038514663 -0.05219502 0.11631244 0.02745865 -0.0028177518 0.1723311
0.1188287 0.03656099 -0.036230337 0.025275908 0.11562843 0.04140416 0.016136905 -0.101786174
-0.14963464 -0.004713769 0.060984693 -0.1369838 -0.023380918 0.011208921 -0.0070084506 -0.048774417
0.05501207 0.06769333 0.06623374 0.026469586 0.029217826 0.061842535 0.019042872 0.0345682
0.17183158 0.20533232 0.074494734 -0.0016848104 0.05617138 0.07604729 0.11899829 0.107529595
-0.29395515 -0.20463179 -0.03942455 -0.08899781 -0.16744943 -0.18522644 -0.15747893 -0.16304806
-0.09290374 -0.04287917 0.043999724 0.06449943 -0.060884036 -0.03017329 -0.01682284 0.10972625
0.066800795 0.05529818 0.12740697 -0.010513015 -0.114740916 0.09578057 -0.006400347 0.018294763
-0.11507436 0.20117392 0.18492213 0.1335523 0.023570858 -0.0009018053 0.043225326 0.19191186
0.15107769 0.20521152 0.18096897 0.09791828 0.03412931 -0.06440342 -0.062110383 -0.055472866
0.02866714 -0.10891487 -0.08764824 -0.1159834 -0.049880218 -0.123328015 -0.15299144 -0.052114684
-0.10696134 0.027768428 -0.018050274 -0.08356419 0.003448751 0.014573372 0.073470786 -0.072804324

conv1.0.bias f4 [6]
00000000: 2909 06be 0382 d0be ea58 6fbe 5959 fb3d
00000010: 1f7b 6e3d b557 1b3d
-0.13089432 -0.4072419 -0.23373762 0.12272901 0.058222886 0.03792544

conv2.0.weight f4 [16, 6, 5, 5]
00000000: 39bb bd3d 7e32 0d3e 7140 353d 5fa4 eebb
00000010: 238c 083e ab99 013d ff01 bf3c 2d2e 2bbd
00000020: 2d5e 9c3d 2487 8b3d 357f d0bd 2a87 56bd
00000030: d8ea d23d edff bd3d e896 f93d ddf3 8bbc
00000040: 80d5 0b3d 6dfd f9bc 73f5 d4bd bf60 65bb
00000050: 5a75 29bd 9aa1 fdbc 9bc0 543b 4fdb 6d3c
00000060: 1e85 a03d bf20 0cbd 7313 5dbd c85d b4bc
00000070: 655e cabd 0a3a 1abe f44c 103d 8a30 27bd
00000080: c47b 353d a6e1 843d 3471 94bc 6725 ab3c
00000090: bcf9 c13b 0714 a53c 9693 343d 5a5b 7a3c
000000a0: e09d 253d 0c75 a13d ec90 133c 56d1 cb3a
000000b0: cd9f 10bd a763 8a3c 6788 e03c 14f1 813d
000000c0: 299a ff3c 64fe 7ebd b78f 64be e1c9 4bbe
000000d0: 6301 01be 9bcd c4bd 2dea 25bd 05c6 f8bd
000000e0: 7dae fa3b 5aad 88bd c87a a1bd d591 7fbd
000000f0: f160 013d 3ba6 f0bd bdc2 5bbc c0d6 f8bd
00000100: 42f6 8bbd 94bb 1f3d 551a 4ebd 4725 dabb
00000110: 4a65 1d3c 44c6 a7bc 0232 9f3d 7e50 163d
00000120: b6a9 463d d231 ac3d 692f 653e c0b1 63bd
00000130: 6c37 55bd 1d3f 183d 547b 923a 2179 ccbc
00000140: 0c2b 98bd 526d 58bd 150d f1bd 4dae ba3b
00000150: 4981 9abd 1d1c e93c b67e 66bd ffa6 f0bc
00000160: 6b6a 203d 14b7 293b 8101 183e 660f b33d
00000170: c0f2 7a3d 422b 3ebd 8550 a8bc c93b b63e
00000180: 2333 513e f9e2 553e ce03 fa3d 6772 a03d
00000190: c7b6 d13d 3256 ec3d cd30 f63d b447 033e
000001a0: d65f b63d 4616 133e c18f e03d 5cbd be3c
000001b0: f5f8 843a 3448 6a3c e0b9 9cbd c431 02bd
000001c0: 78e6 8ebd bf86 c2bd 00f4 2cbd c9af 27be
000001d0: 49d6 11be 9c90 33bd cc0b 55bb 16a8 3cbd
000001e0: 3b9a b8bd 55a2 16bd 96a1 bfbd f27f 75bd
000001f0: 30b9 cc3d 5a94 14be 5070 b23d fc50 943e
00000200: 9089 803e d3a7 8e3e 6017 abbc 7dbf 1d3e
00000210: 2908 353e 6910 043e 63da 1c3e 20b8 1f3e
00000220: cb3d 763d 336c 003d 0561 cebd ee85 88bd
00000230: e0f9 01bc 7d05 5fbd de59 c2bc 6eac e1bd
00000240: 6611 8fbd e854 a0be 140b b3be 5b34 b7be
00000250: 9f96 adbe 390a 94be d849 053e c908 e83d
00000260: 30de fc3d 1a27 dd3d 073c fe3d e727 d23d
00000270: 1aa3 733d 9f85 0c3e 6e3e af3d 6bd8 b93d
00000280: 599b 993d 0e85 a23d 1a4b 2f3e 09a0 873e
00000290: 2ca7 ab3d b263 07be 0faf 14be 9b07 a5bd
000002a0: daa1 7bbd 4d8b 36be c907 b2bd 3c88 c1bd
000002b0: 757d 6dbe 38d2 18be 98e3 5ebe 1760 26bd
000002c0: ba4b 693d dbc8 c63d 4817 95bc 0e4e 1fbd
000002d0: ec95 05be 3438 20be 88c7 46be 0bda d2bd
000002e0: 1c86 5d3c 5e0a 96bc d46b 633d 005f 043d
000002f0: b082 3dbd a12f 0e3d da86 563e 970b 223e
00000300: 9e98 3e3e 5739 1c3e 0bd3 263e b205 e53d
00000310: a181 4e3e 9b07 103e 1b41 1c3e 418d 163e
00000320: 9795 f8bc 23fc a8bd a9d6 9dbd 5750 533c
00000330: 6454 aebd 037c 0f3e ca96 5a3e b887 f13e
00000340: 7ced eb3e 3994 973e 5bdb 343d fdf4 ea3c
00000350: 9c72 c53d 8737 c0bc 4bae 1f3c f851 033e
00000360: b2bd 913d a8ec 37bd 531d 2fbe a261 df3b
00000370: e7a0 1d3e 2073 3a3e 7b5e 043e 215f 323e
00000380: 8760 5e3e a74e cabd bf7f 25be 48af 9ebd
00000390: de75 02be c176 6ebd b0d3 1cbe 044a 2dbe
000003a0: 6e5a 88be 38a8 67be 47e7 1ebe 4ea6 c23d
000003b0: 48dd 2b3d 508c d13d 1428 da3c 289a eb3c
000003c0: 0dec b93c 2562 bb3d 175e 393c ebe7 083e
000003d0: 6669 993d b744 0ebe 993c f1bd d120 13be
000003e0: 25ed 40bd 7947 dfbd 2eb2 963d 8576 a13d
000003f0: 5e30 20bc fb67 503d 162b b43a df6b 963d
0.092642255 0.13788792 0.04425091 -0.007282778 0.13334708 0.03164069 0.023316381 -0.041792084
0.0763515 0.068128854 -0.10180513 -0.052374996 0.10298699 0.092773296 0.12186986 -0.017084057
0.034139156 -0.03051635 -0.10398378 -0.0035000292 -0.04137168 -0.030960847 0.0032463435 0.014517619
0.0783789 -0.034210917 -0.053973626 -0.022017375 -0.098812856 -0.15061203 0.03522964 -0.040817775
0.044307485 0.064883515 -0.018120386 0.020891858 0.0059196632 0.020151151 0.04408606 0.015280569
0.040433764 0.07883653 0.00900672 0.0015550058 -0.035308648 0.016893221 0.027408792 0.0634481
0.031201439 -0.062254325 -0.22320448 -0.1990123 -0.12598185 -0.09609529 -0.04050653 -0.12147144
0.007650195 -0.06673689 -0.07884747 -0.062394936 0.03158659 -0.11750456 -0.013413128 -0.12150335
-0.06834079 0.038997248 -0.05031808 -0.006657276 0.009606669 -0.020480283 0.0777321 0.036697857
0.048501693 0.0840794 0.22381367 -0.055589437 -0.052054808 0.037169565 0.0011175671 -0.024960103
-0.074300855 -0.05283863 -0.11770073 0.005697048 -0.075441904 0.028455788 -0.056273185 -0.029376505
0.039163988 0.0025896477 0.14844324 0.087431714 0.06126666 -0.046427973 -0.020546207 0.35592487
0.20429663 0.20887364 0.12207757 0.078343205 0.1023994 0.11539878 0.12021027 0.12820321
0.08904998 0.14363965 0.10964919 0.023283653 0.0010144996 0.014299441 -0.0765264 -0.03178574
-0.06977552 -0.09498357 -0.042224884 -0.1637565 -0.142419 -0.043839082 -0.0032508252 -0.046058737
-0.09013792 -0.036775906 -0.09356992 -0.05993647 0.09996259 -0.14509717 0.08712828 0.28968036
0.25104952 0.27862415 -0.02088517 0.15405078 0.17678894 0.12896885 0.15317683 0.15597582
0.060117524 0.031353187 -0.10077099 -0.0666617 -0.00793311 -0.054448593 -0.023724493 -0.110192165
-0.0698574 -0.31314778 -0.3496939 -0.35782132 -0.33903977 -0.2891405 0.1301645 0.11329801
0.123470664 0.10798474 0.12413793 0.10261517 0.059481718 0.13722847 0.085568294 0.090744816
0.07500333 0.079355344 0.17118493 0.26489285 0.08381495 -0.13221624 -0.14519905 -0.08058091
-0.06143365 -0.17826577 -0.08692891 -0.09449813 -0.2319239 -0.14923942 -0.21766508 -0.040618982
0.056956984 0.09706279 -0.018199578 -0.038892798 -0.13045472 -0.1564644 -0.19412053 -0.10295495
0.013520744 -0.01831549 0.055522755 0.03231716 -0.04626721 0.03471339 0.2094988 0.15824734
0.18612906 0.15256248 0.16291444 0.11182727 0.20166637 0.14065401 0.15259211 0.14702322
-0.030344767 -0.08251216 -0.07706959 0.0128975725 -0.0851219 0.1401215 0.21346584 0.47173858
0.46079624 0.29605272 0.044154506 0.028681273 0.09641001 -0.023463978 0.0097461445 0.12824237
0.0711626 -0.044903427 -0.1710103 0.0068170587 0.1539341 0.18207979 0.12926666 0.17419101
0.2171651 -0.09878283 -0.16162013 -0.07748276 -0.12740275 -0.05821872 -0.15315127 -0.16922766
-0.26631492 -0.22622764 -0.15517913 0.09504376 0.041959077 0.102318406 0.026630439 0.02876003
0.022695566 0.09149579 0.011313937 0.1336972 0.07490806 -0.138934 -0.11779136 -0.14367987
-0.04710116 -0.10902304 0.07358204 0.07883934 -0.009777157 0.050880414 0.0013745751 0.073447935

conv2.0.bias f4 [16]
00000000: a4d8 4b3c 11a3 66be 479c 3cbe da03 18bd
00000010: f656 d03d 35b4 6fbe 498d 1c3e aded 83bd
00000020: 5090 c3bd 5cc0 2c3e ee85 e23d 894f acbe
00000030: 03c5 17bd b1c9 babd 30ea 49bd 4700 743e
0.012441788 -0.22523142 -0.1841899 -0.037113048 0.101728365 -0.23408587 0.15288271 -0.064418174
-0.0954901 0.16870254 0.11060701 -0.3365443 -0.03705312 -0.09120501 -0.049295604 0.23828231

conv3.0.weight f4 [120, 16, 5, 5]
00000000: 6fe3 af3a b3ed 89bb aa2d 783c 1fc0 32bc
00000010: e031 d8bb 3feb 8f3c 31c5 1fbc 999d cc3b
00000020: e359 85bd bcd8 77bd 3f44 803d 7a32 273d
00000030: 4cd0 4a3d 93e5 d73d ad8c 8b3d 4669 cd3d
00000040: 767c 0a3e 45e5 383e 8225 0d3e bd1c 163e
00000050: 9c46 453d 5c65 7d3d 212b 013e efdb f73d
00000060: 473c 173e 7473 be3c 27c9 083d 0a93 96bb
00000070: 5b09 fcbc a3a2 89bc 28ad 7c3c a345 603d
00000080: 9288 1b3d 671f e23c 8bbe 10bd 0300 c83d
00000090: f643 9f3d bdf9 ef3d 8701 0d3d 3ea5 973d
000000a0: b78e 143e b75d 8c3d 5fea 1d3d 866d c23d
000000b0: ec80 543d c757 d33d f6ca 823d 4e53 a73d
000000c0: 3dbe ac3d fffe bc3d d687 8e3b 9bd4 b33d
000000d0: 6a18 3bbb bdae a4bc 9a32 81bc cbba 723d
000000e0: 8195 ea3d ab6c b53d 3730 2a3d a0c9 8f3c
000000f0: f702 1abd 77e2 9d3d c7ba 823b 05c6 70bb
00000100: 520d 163d bd29 a4bd 40be 72bd 1a7e f1bd
00000110: 1482 e5bd cd2e 45bd b82c a0be 4431 e7bd
00000120: b872 23be 4612 8bbe b62a 91be 9b49 773d
00000130: 06cc ca3c 49fb 573c 2f66 f03c 0e48 4b3d
00000140: fd0e 8e3d acb7 333d 1813 70bd dcfd f23c
00000150: 3678 36b8 05e4 6b3d 586c 8a3d 9408 333d
00000160: 2598 e63c 2c78 fdbb 5390 9d3d a115 913d
00000170: c2d6 593c 6c4a b5bb a1d5 1c3d 997c 2fbe
00000180: 0c58 1ebe 2067 e7bd 8dd3 d2bd d697 06be
00000190: c2aa 3dbc 063b b93c fb1f 113c 61be 923d
000001a0: 2cc5 3dbd fe22 303d 85c3 ca3d 5322 be3d
000001b0: 4c24 f03d 4192 b93b 854e 283d c477 943d
000001c0: 8689 e13c db47 0f3e 1cd3 033d b64a 2abd
000001d0: ba07 04bd 76ab dbbc 4834 9f3c 6525 9cbd
000001e0: fbe2 b6bd d109 1cbe cc50 14be c6e7 13be
000001f0: b450 6bbe 030a 93bd bdfc 0fbe afd9 e6bd
00000200: e1be 52bd ef34 cfbc 903c 4c3c a6d6 ccbd
00000210: 7515 acbd 7bdb a1bd ec44 b1bd aaa5 603d
00000220: b5e5 06bd ab93 86bd a23a 8ebd 25fe 87bc
00000230: b851 743d b9e6 913d f23d 0c3d ce64 a0bc
00000240: 178e 343d a49e 103e 45ed 853d 16e3 6f3d
00000250: 7bf1 c13c 3d3f bb3c 3332 623d 94f7 a0bd
00000260: bc0c a2bc a863 01bd e3b1 56bb b9c6 b53a
00000270: 24da fabd b8c4 e7bd 74de 36bc c8f0 b33c
00000280: f504 e5bc e59c c8bd 78b5 47bd c2f1 94bd
00000290: eb9f 12bd 254d 01be 3fb8 eabd 6470 ddbd
000002a0: 8b16 a1bd d7a8 dcbd d90d 41bd e779 54bd
000002b0: 5865 fbbd 5fbf 15bd d154 25bb f615 2f3d
000002c0: 863d 21bc 994b 7fbd 2509 b7bb bc75 853c
000002d0: 1893 4b3d a5fd 383d 649c 5d3b 1c76 1d3d
000002e0: 75b2 37bd fb67 473c a3a0 bfbc 98f4 0fbc
000002f0: acc4 803d 3fd3 ab3c 9a16 1a3c cc1c 2e3c
00000300: b507 a0bd fc1a 8ebc 7bac a4bb df9e 29be
00000310: ff1d 4fbe 472c 91be 4a23 5bbe 9df3 f3bd
00000320: 22e4 96bc 8700 1a3c f72b 87bc abba 0cbd
00000330: 23a5 683d 5285 1836 f214 0ebd a2dd 77bd
00000340: 154d bdbb 4baa c33c 7bf4 c53c eee3 05bd
00000350: 5e5e 4bbd f9c6 13bc 2103 383c 7bfb d93d
00000360: c007 3f3d 9e1a 873d 8043 ad3d e1d5 2bbc
00000370: c122 c2bd 4eaf 59bd 628b 8c3c c4d8 aebc
00000380: 0cb5 e7bd 8c25 89bd 2780 f9bd 5bfd 69bd
00000390: 7493 4ebd ec83 42b9 a5bd 05be 5fc8 acbd
000003a0: 9d4d 2dbd b090 b0bc eefd 7ebc 4917 963d
000003b0: e215 af38 31d0 843b 11ed 3eba a0be 5b3d
000003c0: b188 1a3c c315 1c3e 1ca4 133e 19c7 8f3d
000003d0: c1b9 4b3c 78dc 60bd 7801 01bc c6f8 93bb
000003e0: fcbc f7ba f201 353d d0e7 533d 4433 3c3d
000003f0: a149 603d b8f1 313b b457 b33c 5ef0 1b3d
0.0013419221 -0.004209244 0.015147606 -0.010910063 -0.0065977424 0.017568229 -0.009751604 0.006244373
-0.06511285 -0.06050943 0.06263017 0.040819623 0.049515054 0.10541835 0.06813941 0.10029845
0.1352404 0.1805621 0.1378384 0.146594 0.04816304 0.061864242 0.12614109 0.12102496
0.14769088 0.023248412 0.03339496 -0.004595165 -0.03076618 -0.016801184 0.015422143 0.05475391
0.03797204 0.027602864 -0.035337966 0.09765627 0.077766344 0.11717556 0.034425285 0.07404564
0.14507566 0.06853812 0.03855359 0.09493546 0.051880762 0.103194766 0.06386368 0.08170186
0.084347226 0.09228324 0.004349689 0.08780786 -0.0028548487 -0.020102853 -0.015771199 0.05926017
0.11454297 0.088586174 0.041549888 0.017552197 -0.037600484 0.0770921 0.0039895508 -0.0036739123
0.036633797 -0.080157734 -0.059263468 -0.1179163 -0.11206451 -0.048140336 -0.31284118 -0.112886935
-0.1596173 -0.2716238 -0.28352898 0.06037293 0.02475549 0.01318247 0.0293456 0.049629264
0.069364525 0.043876335 -0.05861196 0.029662065 -4.3504137e-05 0.057590503 0.06758946 0.043709353
0.02814872 -0.007735273 0.07693543 0.070842035 0.013295831 -0.0055325534 0.03828967 -0.17137374
-0.15463275 -0.112989664 -0.10294256 -0.13143858 -0.011576356 0.022611152 0.008857722 0.07165218
-0.046330616 0.04300212 0.09900574 0.092838906 0.11725673 0.005663187 0.041090507 0.07249406
0.027531397 0.13992254 0.03218375 -0.041575156 -0.03223393 -0.026815157 0.01943411 -0.0762432
-0.08930012 -0.1523812 -0.14483947 -0.14443883 -0.22980005 -0.07179644 -0.14061256 -0.112719886
-0.051451568 -0.025293795 0.012465611 -0.100018784 -0.0840253 -0.07903191 -0.08655724 0.05484549
-0.03293391 -0.06571134 -0.06944777 -0.016600678 0.059648246 0.07124085 0.034238763 -0.019579317
0.04408082 0.14123017 0.06539396 0.058566175 0.023674717 0.022857303 0.055223655 -0.07859722
-0.019781463 -0.03158918 -0.0032759837 0.0013868428 -0.12248638 -0.11316818 -0.011161435 0.0219654
-0.027956465 -0.0979555 -0.048757046 -0.07272674 -0.03579704 -0.12627085 -0.114609234 -0.108124524
-0.07865628 -0.10774391 -0.047132347 -0.051874068 -0.12275189 -0.03655946 -0.0025227556 0.042745553
-0.0098413285 -0.062327955 -0.005585807 0.016291492 0.049700826 0.04516377 0.003381514 0.038442716
-0.044847924 0.012170787 -0.023392027 -0.008786343 0.06287512 0.020974753 0.009404803 0.010626983
-0.0781397 -0.017346852 -0.005025444 -0.16564511 -0.20226286 -0.28354093 -0.2140018 -0.119117
-0.01841933 0.00939954 -0.016500456 -0.034357708 0.05679811 2.2727368e-06 -0.034687944 -0.0605141
-0.005777011 0.023884913 0.024164429 -0.032688074 -0.049650542 -0.009019607 0.011231215 0.10643669
0.04663825 0.06596874 0.0846014 -0.010488004 -0.09479285 -0.0531457 0.017156307 -0.021343596
-0.11313829 -0.066966146 -0.12182646 -0.057126384 -0.05043359 -0.00018550426 -0.13060625 -0.08436655
-0.042310346 -0.021553367 -0.015563471 0.0732866 8.348726e-05 0.0040531387 -0.00072832505 0.05364859
0.009432004 0.15242676 0.14418072 0.07020397 0.012434424 -0.054897755 -0.007873885 -0.00451574
-0.0018900926 0.04419131 0.051734746 0.04594733 0.054757718 0.0027152132 0.021892406 0.03807103

conv3.0.bias f4 [120]
00000000: 5cb5 133e c6e5 033e 8c35 03bd e4ee 1cbc
00000010: 1a0b 07bd 957d 62bd c8da 1bbe ec84 7ebe
00000020: 1e96 4b3e 7f14 5d38 64e4 46be b560 483e
00000030: ee65 47be d476 50be c719 533e f931 b2bd
00000040: 6d14 9a3e 993f e33d f749 11be ecee 4abe
00000050: 49cf b93d a91b d13c f4df 293e 75f4 613e
00000060: ecc7 c93b b157 0c3b cc38 16be 2714 29be
00000070: 4985 bc3d 1edf a0bd da9d e33d a493 a4be
00000080: 4b27 6f3e 998a 8e3d 76f4 5bbe 3050 7dbe
00000090: 0c7c 80be ddc0 7fbe 956a 72be 3245 82bd
000000a0: 5b0f 3abd 59c8 31bd 624f 0c3e fa9e a43e
000000b0: aa0f f53d 2ca0 d5bd c965 b73d 1fd7 0ebe
000000c0: e07a d83d 08b4 453e a71f 11be cac0 5f3e
000000d0: 82d8 923e f897 89bd 82e0 883d 37d3 803e
000000e0: 2dfc 90be 8175 3abe 76b7 213d c93e f9bd
000000f0: 596c 15be 0e71 adbc e49e 89be a2b6 29bd
00000100: c9ee e2bd b723 51be 376d 6cbe 5f2a 26ba
00000110: 5c9e 07be 2ea8 e9bd b034 60bd 73e0 2a3d
00000120: 5704 40bd c907 f6bb 8ff9 273d 5eed 713e
00000130: e228 3c3e ddbb f6bd 9e6c 603e 794f 49be
00000140: 70e6 2cbd c646 3cbe 3509 74be 94ab 273e
00000150: e7f2 5abe c363 96be c128 e93c e715 debd
00000160: 388f 963e 4458 023e e1f1 1a3e d248 863d
00000170: 6a91 d3bd d3b7 83be 9134 6c3d 9c8b 513e
00000180: 0c81 c8bd 10d5 323e 633c e43c 298e 5fbe
00000190: ca7d 31be f1f2 b6bb 7592 5cbe 8eba 103e
000001a0: f51a a73c d6ee 2fbd 7ff4 6bbe d4d1 c3bd
000001b0: ce7d c7bd 2d3a 6f3e 0237 5a3e aed0 563e
000001c0: 934f 29be 023d 023e d443 053d 5c39 d73d
000001d0: 54d7 0a3e 87c3 863c 2643 b03d aeb1 473c
0.14424652 0.1288062 -0.03203349 -0.00957844 -0.03296957 -0.055295546 -0.15220177 -0.24855393
0.19881484 5.2709594e-05 -0.19423062 0.19568141 -0.19472477 -0.2035783 0.20615302 -0.08700938
0.3009371 0.11096115 -0.14188372 -0.19817704 0.0907274 0.025525885 0.16589338 0.22065909
0.0061578657 0.0021414573 -0.14670104 -0.16511594 0.092051096 -0.07855056 0.11114092 -0.3214389
0.23354833 0.06960029 -0.21479973 -0.2473762 -0.2509464 -0.24975915 -0.2367347 -0.06360854
-0.0454248 -0.043403957 0.13702157 0.3215254 0.11965878 -0.10430941 0.08954961 -0.1394925
0.105703115 0.19306958 -0.1417223 0.21850887 0.28680807 -0.06718439 0.066834465 0.25161144
-0.28317395 -0.18208887 0.039481603 -0.121701784 -0.14592113 -0.021172073 -0.26879036 -0.041433938
-0.11080701 -0.2042378 -0.23088537 -0.0006338711 -0.13244003 -0.11409031 -0.054737747 0.041717958
-0.04687914 -0.0075082523 0.041009482 0.23625705 0.1837497 -0.12047551 0.21916434 -0.19659223
-0.04221195 -0.18386373 -0.23831637 0.16374046 -0.21381722 -0.29372987 0.028461816 -0.10844021
0.29406142 0.12728983 0.15131332 0.06556858 -0.1033047 -0.25726184 0.05766732 0.20463413
-0.09790239 0.1746409 0.027860826 -0.21831574 -0.17333141 -0.00558316 -0.21540244 0.14133665
0.020398596 -0.04295238 -0.23042487 -0.09561506 -0.09740792 0.23362036 0.21310046 0.20978042
-0.16534261 0.12718585 0.03253539 0.10508987 0.13558704 0.016450657 0.086065575 0.012188358

fc1.0.weight f4 [84, 120]
00000000: 0e9a f23d 8132 9b3d cbab 5dbd f023 943d
00000010: 1616 c7bd c40f aabd 5216 543d 8bcb 30be
00000020: 1cc0 393d 8725 96bd 3993 5d3d 27ad cabc
00000030: 11a0 d8bc 9372 353d ccc7 dabd 8efa 13be
00000040: d1f9 943d 857a c43c e50c c8bd 56c9 6fbe
00000050: ff1c 903d 54f3 313d b10e dbbd b454 5d3e
00000060: 4b54 d4bd ac16 b03d ec6f 723c 3b6d b3bd
00000070: 6df3 18be 655c 77bd b0f7 ebbb 2f8a efbd
00000080: 3db1 8d3d 323a 3d3e 0bd9 483d 02ad 66be
00000090: 8d28 2cbe 8dbb 0abc 93d6 9cbd 5027 9fbc
000000a0: d003 90bd bdb5 433c 1eae c13d a235 083e
000000b0: d33c 3a3d 73b6 af3d 7ba3 04be dac2 4fbe
000000c0: 7e0d 4abd 57a7 8cbd a9c1 613c 05ff fc3d
000000d0: 9d25 6b3c 7892 06be 417e 963d c903 413c
000000e0: e144 dabd 1e5f bbbc 637b a33d 0deb 753e
000000f0: c953 123e 6363 963b 7bce 27bd 0e8e 5f3b
00000100: d439 cdbd 7304 49be 973c 39be 2f29 51bd
00000110: 1500 73bd 890c c93d 7ac7 ffbd e8e9 1dbe
00000120: 725b 90bd 3721 e7bd 060c 9ebc 4139 cbbd
00000130: 7f56 0fbd 696d 0cbe 4efb 163e de2b 0dbd
00000140: d5e2 8abd 1fd3 baba 30bc ddbd 7fdf d6bb
00000150: d36c 3fbe 0c09 38be 0d7a 5cbc 4371 6f3d
00000160: 7f16 e03d b1fe ca3c a041 c53d a757 0e3e
00000170: 9901 913d a324 853d 769d 383d de4d 123e
00000180: 3790 aab9 2e77 1dbb 298a 413e 4728 c03d
00000190: fa38 f7bb 0073 cf3d a02f 91bd cf2e d2bc
000001a0: e61a 11bd 4589 a9bd 56c9 96bc 8770 16bd
000001b0: 81c0 88bd 151f 2b3e d440 703d e203 f23d
000001c0: ef76 63be ae4c 903c 6e15 e93b c7f5 173d
000001d0: 37d6 46bd 89cd 303e 83bf 5abd 9065 063e
000001e0: bb40 b5bd 2a18 303e 9d46 713c 349a 5b3b
000001f0: 48c4 bf3d 0838 a53d c86f 9a3c ae2d cabc
00000200: eae5 03be 1451 12bc bbf1 29be deae 1abe
00000210: e2ef 563d 9881 f8bd d8b1 053d 4fa8 b6bd
00000220: e0c3 74bc 4e6f b3bd cdaf 08be 95eb 06be
00000230: 92cd ba3d 66b1 58bd 9066 533e 1bff 953d
00000240: aac3 40be 597e f7bd beb3 73bd 50ff 9dbe
00000250: 9108 c1bd e8fe 67be fd6c 00be 28a0 fe3c
00000260: 479b 6b3e 85d1 efbd 7b81 453d 33ff af3d
00000270: 3247 4cbe 5c27 9cbc 0596 113e bb98 82bb
00000280: a32b 4cbd d7bd 37bd 1a0c 5dbd 2e0f b03d
00000290: 16a6 b6bc eda0 c63b a57f 10bc 27e1 e8bd
000002a0: 81cf 4e3e e5ee 293e 1e86 673d 5748 9cbd
000002b0: 584f 2e3b d32f 343e b49d 61bd 476b 1f3e
000002c0: 744a 073e abfd 2539 68fb 8a3d 7381 673e
000002d0: 7c05 a5bc b543 46bd 19e7 333d 7782 cabd
000002e0: d8d0 87be 2edc f13d dc5e 6fbd c0de debd
000002f0: e371 d0bd 655a 103e 3a3c 89bd 8d02 0fbe
00000300: 87ca e4bd 7af3 9dbd e1d1 633d 1884 0cbe
00000310: 0cae fcbd 3c3e 02be 56be f73c c39d 90bd
00000320: e85d 393d 7eb5 003d ca0b 043e a631 613d
00000330: 89e2 273e 85d0 18be 546c e9bc 2b2d ecbd
00000340: 155b d13d 916f 30be 9c47 9c3d 17f2 353d
00000350: b1bc 9cbd d69b ebbd 602d 063e eeb6 d6bd
00000360: cd0d 1dbd 1022 133e b523 17bd 7f9c 683d
00000370: e2f4 773d 287d 2fbe 0c1a df3d 4bcf 1abe
00000380: 90d3 de3d 4014 4bbe ed55 10bd cb99 e03d
00000390: c94a d8bd 44f9 70be cd58 993d b48a 8f3c
000003a0: dc55 78bd 9686 47be cf78 a6bd 6e8a b2be
000003b0: bee3 59be bd51 313e 2380 31be 18e4 e93d
000003c0: f1fe 1d3e 3442 fc3c b846 d63d 5410 05be
000003d0: 6ac0 6e3d eae5 a6bc 5d3b 24be e05a aa3d
000003e0: de64 42be 74e7 26be 85ea acbb 0887 ba3b
000003f0: e174 55bd d1f2 c63c c570 07be 501e 153d
0.1184579 0.07577992 -0.054118913 0.07233417 -0.097210094 -0.08303788 0.0517791 -0.17265145
0.045349225 -0.073313765 0.05409548 -0.024740769 -0.026443513 0.04429872 -0.106826395 -0.14451048
0.07274211 0.023984203 -0.097680844 -0.23416647 0.070367806 0.043444946 -0.106961615 0.21614343
-0.1036764 0.08598074 0.014797192 -0.087610684 -0.1493661 -0.06039085 -0.0072011575 -0.11696278
0.06918571 0.18479231 0.049035113 -0.22526935 -0.16812344 -0.008467567 -0.07658114 -0.019427925
-0.07031977 0.011945185 0.09457038 0.1330171 0.045468163 0.08579721 -0.12952988 -0.20289174
-0.049329273 -0.06867855 0.013779082 0.123533286 0.014352229 -0.13141811 0.073483 0.011780688
-0.10657669 -0.022872504 0.079825185 0.24015446 0.14289774 0.0045894845 -0.0409684 0.003411177
-0.100207955 -0.19630603 -0.1808952 -0.051064666 -0.05932625 0.09816844 -0.12489219 -0.1542126
-0.07048692 -0.11285632 -0.019292843 -0.0992303 -0.0349946 -0.13713612 0.14744303 -0.034465663
-0.06781546 -0.0014253593 -0.108269095 -0.0065574045 -0.18693857 -0.17972201 -0.013456834 0.058457624
0.10941791 0.02477965 0.096316576 0.13900624 0.07080383 0.065011285 0.04507204 0.14287516
-0.00032532375 -0.0024027335 0.1890036 0.09382682 -0.007544634 0.101293564 -0.07089162 -0.025657086
-0.035426043 -0.08278135 -0.018406551 -0.03672841 -0.06677342 0.16711076 0.058655575 0.11817147
-0.22213338 0.017614689 0.0071131503 0.037099626 -0.048544135 0.17265905 -0.053405296 0.1312468
-0.08850237 0.17196718 0.014726308 0.003350866 0.093636096 0.08067328 0.01885213 -0.024679985
-0.12880674 -0.008930463 -0.16596119 -0.15105769 0.052474864 -0.12134093 0.03264031 -0.08918821
-0.014939278 -0.08761464 -0.13348313 -0.13175805 0.09121241 -0.052903555 0.20644593 0.07324048
-0.1882464 -0.12084646 -0.059497587 -0.3085885 -0.09425462 -0.22655833 -0.12541576 0.031082228
0.23008452 -0.117098846 0.048219185 0.08593597 -0.19949034 -0.019061737 0.14217384 -0.003985492
-0.049846303 -0.04485878 -0.05396662 0.08596645 -0.022295993 0.0060616643 -0.008819495 -0.113710694
0.20196344 0.16595037 0.05652439 -0.07630985 0.0026597586 0.17596368 -0.055082038 0.15568267
0.13211995 0.00015830125 0.06786233 0.22607975 -0.020144217 -0.048404414 0.043921564 -0.098881654
-0.26526523 0.11809574 -0.058440074 -0.1088233 -0.10177972 0.14096983 -0.067009404 -0.13965817
-0.111714415 -0.07712455 0.055620078 -0.13722265 -0.12337884 -0.12719053 0.030242126 -0.07061341
0.04525557 0.031423084 0.12895122 0.05497899 0.1639501 -0.14923294 -0.028494038 -0.115320526
0.10222451 -0.17230059 0.07630846 0.044420328 -0.076531775 -0.11504333 0.13103247 -0.1048411
-0.03834324 0.14368463 -0.036899287 0.05678987 0.060536273 -0.17137587 0.1089364 -0.15118138
0.10880196 -0.19831944 -0.035238195 0.10966834 -0.10561139 -0.23532587 0.074876405 0.017522193
-0.060628757 -0.19484934 -0.08128511 -0.34871238 -0.21278283 0.17316337 -0.17334037 0.114204586
0.15429284 0.030793287 0.10462707 -0.1299451 0.05828897 -0.020373303 -0.1603827 0.08318114
-0.1898379 -0.1629923 -0.0052769803 0.0056923665 -0.052113418 0.024285706 -0.13226612 0.03640586

fc1.0.bias f4 [84]
00000000: c161 6e3e d9d6 323e 2857 b2bd 6e1c 4c3e
00000010: 42d6 523d 7683 9dbe 1fc4 9e3d cada 653e
00000020: b499 453d 8a65 02be 118e b0bd 221f 47be
00000030: 02d6 a93e 28a1 3e3c 7fc6 be3b eff1 c0bd
00000040: fb7f 86be c66a 3abe fd4a 493e ffba 873d
00000050: 4096 bcbd b66f 0b3e 2725 8a3d 4ed0 1b3e
00000060: 1c81 cc3c 0f95 df3c 3bc5 ad3d c721 69be
00000070: e50b 25bd 0008 143e c2a0 00be 8670 3f3d
00000080: faad c1bd 2d64 a4be 3776 843e ecd6 223d
00000090: 021b ef3c bd87 3f3e cfe7 593d b2cc a43d
000000a0: 3027 b7bd 4f25 383e d601 113e 00f9 223d
000000b0: 2536 cfbd d478 853d 0c43 17be 91cf e43c
000000c0: 2ab6 133d ba75 cf3d 5263 323e 53ca 363e
000000d0: ed4d 183d 55a4 d1bd 1355 81bc 6be2 733e
000000e0: c429 833e a10c 2cbc 2b11 53be 1d8c eb3d
000000f0: 491f 803d 5e2d d8bd da88 1cbe 6854 c43c
00000100: ccd4 2f3e 95a8 c33c 9429 37be c954 533e
00000110: 4e06 933e 2dcb 90bd e7f9 3dbd 2d60 143c
00000120: 2db3 efbd 414d eb3c 39e9 adbd 162f d83d
00000130: e15d 4f3e 01ed 66be 4465 d93d 97cf 4dbd
00000140: ef7b 82bd a9eb 98bc 01ea 02be 213a 46be
0.23279478 0.1746477 -0.0870803 0.1993272 0.051473863 -0.3076436 0.07752251 0.22446743
0.048242286 -0.12734047 -0.08620847 -0.1944547 0.33171088 0.011635102 0.0058220024 -0.09421145
-0.26269516 -0.18204793 0.19657512 0.066274635 -0.092083454 0.13616833 0.067453675 0.1521618
0.024963908 0.027292756 0.08484884 -0.22766791 -0.040294547 0.14456177 -0.12561324 0.04673817
-0.094570115 -0.32107678 0.2587144 0.039755747 0.029187683 0.18704124 0.053199586 0.08046855
-0.08943021 0.17982982 0.14160857 0.039788246 -0.10117749 0.06517187 -0.1477167 0.027931007
0.036062397 0.101298764 0.174207 0.17850618 0.03718369 -0.10236422 -0.015787637 0.2381684
0.25617802 -0.010501058 -0.20612018 0.11501334 0.06255967 -0.10555528 -0.1528658 0.02396603
0.1717102 0.023884097 -0.17886955 0.20637812 0.28715748 -0.07070003 -0.046380904 0.009056133
-0.11704097 0.028723361 -0.08491749 0.10555856 0.20250656 -0.22551347 0.10615018 -0.0502468
-0.06371295 -0.018667059 -0.12784578 -0.19358112

fc2.weight f4 [10, 84]
00000000: 580d 143e 3a88 c9bd 8f71 853c aac4 d03d
00000010: 779f d4bc 24e5 803e ff1f 873e f040 803d
00000020: b0af 12be 0bd2 583e 5442 873e d1cd 6abe
00000030: 9973 c23e a715 91bc 540d d23c 0d8b 923d
00000040: b38c 65be e760 1ebe ef2f a43d 32e7 ff3c
00000050: a269 2abd 2fed ae3d 92f2 333d 9071 7f3e
00000060: 96b2 01be dd9e 343e 9433 663e 7c8b 12be
00000070: bfc1 8fbc b4b8 773e c53a 2e3d b354 d6bd
00000080: da08 09bd 1870 68be ec23 15bb 43a6 fabd
00000090: b931 26bd a01f 273e 9263 6b3e e625 a03d
000000a0: fefc 8ebe ea32 323e 585b 4e3e 61d6 183d
000000b0: 66bb 533e d5d0 5b3d 946f 143e b485 243e
000000c0: 7ffd e5bd 49a9 563e d1d8 973e 772e 673e
000000d0: bf53 9d3d d625 853e c286 46be f038 c7bd
000000e0: f39f e23d 16c2 d43d 487c 83be 1146 4d3e
000000f0: 9758 ae3d dcd4 a3bd 4b3f 40bd dbd3 c23d
00000100: 43d8 0abe c7b1 803e df69 a4b9 5208 9bbd
00000110: 2d8e 423d 8d84 06bd afb9 3a3d 9f72 613e
00000120: 8a9b 52be 668b 84be 1166 9abe 8bfc 9cbd
00000130: 72f5 6b3e 86b0 543c 1d36 3c3e c288 8dbe
00000140: 0b74 f5bd b27a f13d 5598 8fbe 716a dfbd
00000150: adb0 3c3e c544 2f3d f9c7 c03d cb2a 6c3e
00000160: d3d5 0abd 5d1b 90bd e707 5abe 56c0 733e
00000170: e8a0 113e 3354 37be 3c14 23be 27de f3bd
00000180: e1d3 033e 75d5 fa3c 0756 5c3e 11d3 00be
00000190: 9bb2 a7bd 14f3 c5bd 5b35 f43c 68bc 823e
000001a0: 9dfd 6dbe db53 aa3d d951 efbc 98d7 04bc
000001b0: 2116 a13e 5ea0 04be 5681 18be 6f7e 843c
000001c0: 142a 3a3e f0b7 a13e fce7 08be dc40 a73e
000001d0: 83a6 693b ad8f a0be 3de3 2d3e 802d 443c
000001e0: 3ab5 f13d 4fa6 6d3e 86f4 8d3d a063 eebc
000001f0: d211 f03d 3799 f8bd 3cfb ad3c 4333 f23d
00000200: 505e 17bd 3ddc 0a3e 7d27 87bc a4bb 62be
00000210: 006a 86bb 3d39 a63e 0f45 4a3c d26f 493e
00000220: 9a4f 7fbe 6fbd a3be 47a7 a0bd c471 763e
00000230: f674 8b3d 7b74 e8bd acc6 7cbe 90b3 8f3d
00000240: 2875 3bbd 879d 61be 6f61 c7bc 3e61 a93d
00000250: c983 763e fad7 67be 1041 3cbe 0c39 6a3e
00000260: aabb ae3e 9243 51be 71e8 88be 731c 58be
00000270: 02f8 adbd 40b0 683d 78f2 cd3c 32c1 febd
00000280: f69c 023e 8d33 81be b318 343e 0a3d 67be
00000290: 7f84 303e b3d3 7e3d bb1a 123e e6de 2ebe
000002a0: ebcb e23c 4449 e2bd bb5f cc3b 4eee fbbc
000002b0: 3feb 67be 28e8 0abd 5132 ab3d 98d8 7a3e
000002c0: d485 74bd 721d bfbb 6071 95bc b040 05bb
000002d0: 0aa9 b03d 835e e83d 2d74 a0bd d8c5 65be
000002e0: 285a 903d 0122 b3bd a329 9dbd a054 0fbe
000002f0: c8aa 0fbe 8ffc 193c 840f 923e c0a1 383e
00000300: 7973 1abe d08e 1dbe f7ab 823d 44b0 a9bd
00000310: bae5 77be a96e 85bd e37b d13d 5d19 9ebd
00000320: efe4 2f3e 0c3a abbd 3faa 8dbd 77cf 243e
00000330: aa15 7e3e 4c17 8c3c e0c4 16be 1546 59be
00000340: 3566 8c3d f5b2 a6bd 04f4 2f3e bb92 0c3d
00000350: 71e4 49bb 2c61 66be 34ff 283d ec9f e7bd
00000360: c2e4 f0bd 3afa 14be 2985 24be 4b2b 5a3e
00000370: 9474 6b3e 2fc6 143e cda4 c33d bc2e 503d
00000380: 5e27 863e 8d09 293e 24df 96bd a5c0 743b
00000390: b100 d53d 8bac e7bc df9e 24be 3689 1abe
000003a0: c001 e4ba fd0e 943e 68ca ab3e f5c5 74bd
000003b0: a0ea 67be 4f1f db3d d28e 873e 0af9 993e
000003c0: a66b a23e b264 85bd 179d 923e b2e2 bcbd
000003d0: 2b40 01bc 0d01 a93d 5fbc 9ebe 288d 673e
000003e0: be71 c3bd eb75 593e be74 9fbe b7c0 df3b
000003f0: 4d58 71bd 6eba 39be 999f 46be f38d 6ebd
0.14458215 -0.09840436 0.0162895 0.10193761 -0.025954945 0.2517482 0.263916 0.06262386
-0.14324832 0.21173875 0.26417792 -0.22930075 0.3797882 -0.01771052 0.025641121 0.07155428
-0.22416954 -0.15466653 0.08016955 0.031238172 -0.041604646 0.08541333 0.043932505 0.24945664
-0.12665781 0.17638727 0.22480613 -0.14311022 -0.01754844 0.24191552 0.042536516 -0.10465374
-0.033455707 -0.2269901 -0.0022757007 -0.12238743 -0.040574763 0.16320658 0.22987202 0.078197286
-0.27927393 0.17402235 0.20152032 0.037313823 0.20676956 0.053665955 0.14495689 0.16066629
-0.11229991 0.20963015 0.29657605 0.22576319 0.07681989 0.2600543 -0.19387344 -0.09727657
0.11065664 0.103885815 -0.25680757 0.2004626 0.08512991 -0.07999584 -0.04693536 0.095130645
-0.1355906 0.25135633 -0.00031359398 -0.07569946 0.04749887 -0.032841254 0.045587238 0.2201638
-0.20567146 -0.25887603 -0.30155995 -0.07665356 0.23042849 0.01298154 0.18380018 -0.276434
-0.11985024 0.117909804 -0.28045908 -0.10908974 0.18426771 0.042790193 0.09413142 0.23063199
-0.033895325 -0.07036469 -0.21292077 0.23803839 0.14221537 -0.17903213 -0.15925688 -0.119076066
0.12873794 0.030619362 0.21517192 -0.12580515 -0.08188363 -0.09665504 0.029810598 0.25534368
-0.23241277 0.083167754 -0.029213833 -0.008108042 0.31462196 -0.129518 -0.14893088 0.01617357
0.18180114 0.31585646 -0.13369745 0.3266667 0.0035652227 -0.31359616 0.16981216 0.011973739
0.11802144 0.23207973 0.06931405 -0.02910024 0.11722149 -0.121385984 0.021237962 0.11826184
-0.036955178 0.13560577 -0.016498322 -0.22141892 -0.0041019917 0.32465544 0.012345566 0.19671562
-0.2493271 -0.31980464 -0.078444056 0.24066836 0.06809418 -0.11350342 -0.24685162 0.07016671
-0.045766026 -0.22032748 -0.024338452 0.082705006 0.2407371 -0.22640982 -0.18384194 0.22873324
0.3412755 -0.20435932 -0.2673984 -0.21104603 -0.08494569 0.05680871 0.025140032 -0.12439193
0.12755188 -0.25234643 0.17587547 -0.22581878 0.17238043 0.06221361 0.1426801 -0.17077217
0.027685126 -0.110491306 0.006236998 -0.030753281 -0.22648333 -0.033912808 0.083592065 0.24496686
-0.05969794 -0.0058323676 -0.018242538 -0.0020332746 0.08625992 0.11346152 -0.07834659 -0.22438753
0.07048446 -0.0874672 -0.07673957 -0.13997126 -0.14029992 0.009398594 0.28527462 0.18030453
-0.15083112 -0.1538651 0.06380456 -0.08285573 -0.24208727 -0.065152474 0.10228708 -0.077196814
0.17177175 -0.08360681 -0.069172375 0.16094767 0.24812952 0.017100953 -0.1472354 -0.2121814
0.06855432 -0.08139602 0.17182928 0.03431962 -0.0030806328 -0.22498006 0.041259006 -0.113097996
-0.11762382 -0.14548579 -0.16066422 0.21305577 0.2299369 0.14528726 0.09552918 0.05082582
0.2620191 0.1650755 -0.073667794 0.003734627 0.104005225 -0.028280517 -0.1607623 -0.15091404
-0.0017395541 0.28917685 0.3355286 -0.0597591 -0.22648096 0.10699331 0.2647615 0.30072814
0.31722754 -0.06513347 0.28635475 -0.09222926 -0.007888834 0.082521535 -0.3100309 0.2261244
-0.09543179 0.21236388 -0.31143755 0.0068283933 -0.0589221 -0.18137524 -0.19396819 -0.058240842

fc2.bias f4 [10]
00000000: c3d6 753e e567 2e3e 4cbb b03d 8dff 31bd
00000010: 91a0 8dbd 5819 88bd 5cc8 96bd 3c80 933d
00000020: 41a9 09be 479a b23d
0.24007706 0.1703182 0.08629474 -0.043456603 -0.06915391 -0.06645459 -0.07362434 0.07202193
-0.13443471 0.08720832
